Assets/AutoRigLight/Editor/Resources/AutoRigRootModel.onnx (onnx, 829278 bytes, 74 tensors)

hourglass.0.lower_in_bottle_neck.residual_connection.weight f4 [14, 7, 1, 1, 1]
5.9076686e-15 -1.6970918e-16 8.559665e-21 -5.519268e-20 -1.3295837e-13 -2.7078572e-24 -2.1518214e-17 1.6875216e-15
4.869799e-17 1.5065894e-21 6.620311e-21 7.441462e-14 -5.4662953e-25 3.083735e-17 -5.742363e-13 8.267939e-15
-9.963611e-19 4.4393145e-20 2.3745601e-11 -2.6989978e-22 7.3324805e-15 2.9864914e-15 -2.9454092e-18 2.4497988e-21
-2.9976296e-21 -2.6752104e-15 -6.8317967e-25 9.93531e-18 -1.10051503e-16 -3.1218882e-20 -1.444954e-22 -2.470607e-23
-2.4896945e-17 -4.843503e-27 -2.4839344e-20 -6.981048e-15 -3.2289465e-17 -1.11436875e-20 -2.2655369e-20 -1.2077151e-14
-2.8381168e-24 -1.227373e-18 -8.721981e-13 9.153607e-15 -1.4052158e-18 -1.6594715e-19 2.7422339e-11 -3.214453e-22
8.251079e-15 5.517058e-16 2.1239053e-18 2.4879534e-22 -1.2536628e-21 1.0873414e-14 -2.4977715e-25 6.7869553e-18
-2.1739461e-14 -3.878956e-17 -3.0490944e-20 -5.9123607e-20 7.163519e-14 -1.0236044e-23 3.433676e-17 -1.5464183e-13
3.4434386e-15 -2.969395e-19 -1.985866e-19 9.276895e-12 -1.2853658e-22 3.1904074e-15 -5.062538e-21 2.0749117e-21
-3.7631005e-25 8.1274594e-25 9.558173e-19 6.7821804e-29 2.541884e-22 -2.1034736e-12 2.191561e-14 -3.193442e-18
-1.3361953e-18 9.665128e-11 -9.659555e-22 2.6375227e-14 -7.492581e-19 1.7902074e-20 -1.3199347e-24 7.412085e-24
6.709924e-18 9.877654e-28 9.8705e-22 3.335128e-14 3.8466866e-16 3.20092e-20 2.127011e-20 7.396015e-13
-1.1490393e-23 3.219874e-16
00000000: a0d8 d427 4fa9 43a5 00b0 211e ee51 829f
00000010: a4b2 15aa a382 5198 7278 c6a3 8f32 f326
00000020: 7094 6024 5bab e31c b81b fa1d 1c91 a729
00000030: 742c 2997 5136 0e24 16a2 21ab 24f1 1428
00000040: 7509 93a1 05a4 511f 57de d02d f824 a39b
00000050: 1917 0428 0b33 5727 3555 59a2 001a 391d
00000060: 977e 629d ecc4 40a7 126f 5397 2d46 3723
00000070: f1c2 fda4 506d 139f 29af 2e9b 44f1 ee99
00000080: 40a2 e5a3 f5de bf93 d999 ea9e ce84 fba7
00000090: ace8 14a4 917f 529e 52f9 d59e 0790 59a8
000000a0: b296 5b98 d720 b5a1 7f80 75ab 90e5 2428
000000b0: 8d5f cfa1 73ea 43a0 9e35 f12d 404d c29b
000000c0: 63a3 1428 b404 1f26 70b7 1c22 3763 961b
000000d0: bb72 bd9c c5e0 4328 c59a 9a96 fb64 fa22
000000e0: c9cf c3a8 a1e2 32a4 4afd 0f9f 079a 8b9f
000000f0: e04e a129 6ffe 4599 b159 1e24 791c 2eaa
00000100: 3b20 7827 3b48 afa0 1e73 6aa0 6c33 232d
00000110: 2564 1b9b a1e4 6527 dd41 bf9d a1c6 1c1d
00000120: b5ec e896 5e88 7b17 c20d 8d21 def2 ab10
00000130: c0a5 991b d004 14ac f565 c528 6aa2 6ba2
00000140: 0830 c5a1 d589 d42e 98f8 919c 2291 ed28
00000150: 5724 5da1 8f14 a91e 0040 cc97 de5e 0f19
00000160: 718d f722 8684 9c12 a628 951c 6833 1629
00000170: 13bf dd25 c028 171f f8e3 c81e e82d 502b
00000180: ac41 5e99 f49c b925

hourglass.0.lower_in_bottle_neck.residual_connection.bias f4 [14]
-3.9141262e-13 -2.8156833e-13 -1.0162507e-10 -6.327334e-15 -2.2654818e-17 -3.1830745e-13 -1.168284e-10 -9.7551375e-14
-1.3206274e-12 -4.4700143e-11 1.8313026e-18 -3.489352e-10 1.8225246e-17 -3.0449918e-12
00000000: 8158 dcaa 4682 9eaa d479 dfae 5bf7 e3a7
00000010: 2df4 d0a3 f030 b3aa 4574 00af 8aaa dba9
00000020: 9edc b9ab e397 44ae 5420 0722 43d4 bfaf
00000030: 2519 a823 b245 56ac

hourglass.0.lower_inner_module.lower_in_bottle_neck.residual_connection.weight f4 [21, 14, 1, 1, 1]
2.1293527e-36 -2.581023e-36 -2.343526e-36 -2.2947217e-36 2.3424541e-36 -2.3229936e-36 2.1984166e-36 2.1066494e-36
-2.1836955e-36 2.1157804e-36 -2.8422991e-36 -2.364245e-36 1.4783158e-36 -2.5606938e-36 -2.1914064e-36 -3.1442056e-36
-2.2434506e-36 -2.916354e-36 1.781961e-36 -2.0538912e-36 2.2406378e-36 2.2201278e-36 -2.1203369e-36 2.0862148e-36
-2.9098337e-36 -2.1657997e-36 2.181672e-36 -2.0597199e-36 -2.1440159e-36 2.6056536e-36 2.3132201e-36 2.2806135e-36
2.0314736e-36 2.2443496e-36 1.3496664e-36 2.1132332e-36 -5.0869874e-37 2.1129642e-36 1.9896393e-36 2.3517083e-36
1.835744e-36 2.132955e-36 2.1392889e-36 2.022067e-36 -2.1898196e-36 1.3560071e-36 -3.0299274e-36 2.1246201e-36
-2.3699721e-36 2.2221546e-36 2.1486095e-36 2.2031847e-36 1.5023685e-36 2.2024545e-36 -2.2340855e-36 2.0381593e-36
2.1361062e-36 2.0795569e-36 1.8055239e-36 2.1533058e-36 2.1872439e-36 8.919802e-37 2.0992572e-36 2.1087896e-36
1.1812018e-36 2.1700905e-36 2.2057593e-36 4.5437567e-37 2.1694913e-36 2.2125761e-36 -2.1370845e-36 2.1460664e-36
1.807009e-36 1.9710835e-36 1.5059667e-36 1.8238906e-36 1.6734827e-36 2.2167851e-36 2.0942348e-36 2.1046552e-36
2.1529501e-36 6.5535783e-37 2.2040151e-36 2.1725439e-36 2.2060793e-36 2.1784888e-36 7.826738e-37 2.1940106e-36
2.2164662e-36 2.0296654e-36 2.1238124e-36 2.1393945e-36 1.07784335e-36 2.0962365e-36 2.148359e-36 1.4150734e-36
2.2760576e-36 2.1713172e-36 -2.2229302e-36 -2.1042644e-36 -2.2041638e-36 -2.0837531e-36 -7.8901435e-37 -2.1807652e-36
-1.0228785e-36 -2.3698566e-28 -2.103799e-36 -3.4570645e-28 2.137552e-36 -2.170038e-36 -1.8152513e-36 -2.1751908e-36
-2.2020213e-36 -2.1459362e-36 -2.2126048e-36 -2.1408822e-36 -7.922137e-37 -2.171843e-36 -8.725624e-37 -1.9115649e-28
-2.1844264e-36 -2.7468068e-28 2.1958689e-36 -2.0901723e-36 -1.7306442e-36 -2.1009434e-36 2.1780148e-36 -2.2172416e-36
-2.32211e-36 -2.2653623e-36 2.1906976e-36 -2.1629815e-36 2.1843934e-36 2.2201222e-36 -2.1176656e-36 2.119071e-36
-2.2060366e-36 -2.3390933e-36 1.07725745e-36 -2.1189547e-36 -2.2228793e-36 -2.2473527e-36 -2.0769397e-36 -2.1567575e-36
1.2388678e-36 -2.1586231e-36 1.4920268e-37 2.1124535e-36 -2.1916136e-36 2.1702948e-36 -2.2774523e-36 -5.0207623e-37
-2.6390716e-36 -2.164024e-36 2.2159315e-36 -1.8486042e-36 -2.3092195e-36 -2.3085984e-36 1.9589326e-36 5.6168917e-37
1.4812635e-36 2.1777952e-36 -1.5560547e-36 2.1669348e-36 -2.1475313e-36 -6.7499063e-37 -2.597295e-36 -2.426863e-36
-2.1409358e-36 1.4426873e-36 -3.751616e-37 2.0153185e-36 2.4654719e-36 2.0884735e-36 -1.3736407e-36 -2.1290657e-36
-2.1216505e-36 -2.2172337e-36 1.676622e-36 -2.1960748e-36 -1.0950387e-36 2.0269981e-36 -1.01696135e-36 2.0178601e-36
-2.1662641e-36 1.6216172e-36 1.6557953e-36 2.035115e-36 2.1484186e-36 2.1486044e-36 -2.1719782e-36 2.1679959e-36
1.1780877e-36 -1.0871115e-36 1.91274e-36 1.9784272e-36 2.1765594e-36 -1.9207706e-36 -2.7631023e-36 -2.1638012e-36
1.9120071e-36 -2.202853e-36 2.4422635e-36 2.1100199e-36 -2.4384966e-36 2.188412e-36 -2.011919e-36 -2.206181e-36
3.9139607e-37 -7.072016e-37 2.1345599e-36 2.2794713e-36 1.1231957e-36 2.1801836e-36 2.106051e-36 1.6533715e-36
1.8712498e-36 2.2413651e-36 -8.589958e-37 2.1061994e-36 2.130564e-36 -1.9054572e-36 2.1282975e-36 2.2057717e-36
3.1420747e-36 2.1449832e-36 -9.407905e-37 1.873301e-36 1.7250681e-36 2.0987534e-36 1.9810457e-36 2.2083945e-36
-1.1408225e-37 2.2450048e-36 1.3593333e-36 1.198309e-36 1.8523989e-36 2.2844912e-36 -2.2081992e-36 1.0308614e-36
-1.2509505e-36 9.506402e-37 6.4398655e-37 -1.3083407e-36 -5.1047065e-37 2.1137028e-36 -2.1000487e-36 2.1489337e-36
6.7514067e-37 7.6529864e-38 -8.260232e-37 2.9935565e-37 -2.1843781e-36 -2.0886477e-36 -2.2068165e-36 -2.1153855e-36
00000000: 3225 3504 b491 5b84 7a5d 4784 9d36 4384
00000010: 2246 4704 529e 4584 4605 3b04 c336 3304
00000020: adc4 3984 9efd 3304 cbcb 7184 b220 4984
00000030: bc85 fb03 f9d6 5984 9b6c 3a84 5ebd 8584
00000040: 07da 3e84 9118 7884 ad97 1704 cab9 2e84
00000050: c59c 3e04 1ade 3c04 d960 3484 bc79 3104
00000060: 918a 7784 f13e 3884 9c98 3904 ba38 2f84
00000070: 8864 3684 1caa 5d04 79c9 4404 5d03 4204
00000080: 94d1 2c04 9bed 3e04 43a2 e503 25c6 3304
00000090: e919 2d83 49c0 3304 8242 2904 ac0f 4804
000000a0: f72a 1c04 a573 3504 96fd 3504 b804 2c04
000000b0: 0c4a 3a84 70b6 e603 fde0 8084 21be 3404
000000c0: 6c9d 4984 3e0a 3d04 92c8 3604 1d6d 3b04
000000d0: 619d ff03 365d 3b04 130e 3e84 2e63 2d04
000000e0: 46b8 3504 bde8 3004 d498 1904 d92e 3704
000000f0: f411 3a04 38c3 9703 c695 3204 5f65 3304
00000100: 98f8 c803 639c 3804 2fa5 3b04 b49d 1a03
00000110: 568f 3804 a439 3c04 94cd 3584 3091 3604
00000120: 2cb9 1904 66ae 2704 0d1d 0004 d228 1b04
00000130: 3a5d 0e04 4e95 3c04 6528 3204 550b 3304
00000140: 1a27 3704 b801 5f03 337f 3b04 d1d1 3804
00000150: 27ac 3b04 4953 3904 402a 8503 52a5 3a04
00000160: 5c8e 3c04 33aa 2c04 8aac 3404 e3ff 3504
00000170: b362 b703 fd53 3204 1ec3 3604 24c3 f003
00000180: 25a0 4104 1ab7 3804 221b 3d84 d202 3384
00000190: 7082 3b84 2044 3184 6c3e 8683 dc84 3984
000001a0: a408 ae83 1f35 9691 aff8 3284 141e db91
000001b0: c3d7 3504 3e9b 3884 ac6c 1a84 760b 3984
000001c0: c753 3b84 5a8e 3684 443a 3c84 4920 3684
000001d0: c6c9 8683 8dc2 3884 7475 9483 d451 7291
000001e0: 98d4 3984 7d19 ae91 cacd 3a04 eccf 3184
000001f0: 183a 1384 7fba 3284 f648 3904 3f9f 3c84
00000200: 148b 4584 39b7 4084 2b5d 3a04 9101 3884
00000210: e0d3 3904 fbdd 3c04 ac26 3484 4845 3404
00000220: 39ab 3b84 f1fc 4684 2e49 b703 bf42 3484
00000230: 061a 3d84 022f 3f84 beaf 3084 057a 3784
00000240: 4ec8 d203 a6a2 3784 8c15 4b02 2ab5 3304
00000250: 1e71 3a84 d6a0 3804 85be 4184 02d9 2a83
00000260: e481 6084 4518 3884 b782 3c04 0943 1d84
00000270: 5972 4484 d264 4484 c6a5 2604 0722 3f03
00000280: 2006 fc03 2e44 3904 df5f 0484 a957 3804
00000290: 17b1 3684 faaf 6583 14f4 5c84 6574 4e84
000002a0: 7421 3684 e575 f503 5e52 ff82 c071 2b04
000002b0: 39bd 5104 edaa 3104 7eb6 e983 f21e 3584
000002c0: 757d 3484 139f 3c84 98a1 0e04 46d2 3a84
000002d0: aa4f ba83 1c70 2c04 ea06 ad83 1aa9 2b04
000002e0: 0e49 3884 b2f3 0904 07dc 0c04 e120 2d04
000002f0: 6ac4 3604 76c8 3604 7fc5 3884 c56e 3804
00000300: f570 c803 62f6 b883 cab7 2204 544e 2804
00000310: 4429 3904 ae66 2384 0a0f 6b84 6b13 3884
00000320: d4a7 2204 e465 3b84 cac3 4f04 2a80 3304
00000330: c171 4f84 652b 3a04 b727 2b84 5eae 3b84
00000340: 682f 0503 f3a5 7083 9996 3504 7dea 4104
00000350: 131a bf03 3278 3904 bb29 3304 3ea7 0c04
00000360: 3630 1f04 9cac 3e04 8b26 9283 f62c 3304
00000370: 933f 3504 2f19 2284 370e 3504 74a5 3b04
00000380: 2aa6 8504 9979 3604 3511 a083 e25c 1f04
00000390: a8c0 1204 cd8a 3204 5b87 2804 93de 3b04
000003a0: dd47 1b82 e0fb 3e04 5147 e703 b8e1 cb03
000003b0: ad95 1d04 d057 4204 52da 3b84 5964 af03
000003c0: 94d6 d483 38be a103 2423 5b03 469a de83
000003d0: 44b4 2d83 5fd0 3304 03a7 3284 a2cf 3604
000003e0: 0cbd 6503 8855 d001 628a 8c83 1cbb cb02
000003f0: 8bd3 3984 b8ae 3184 35bc 3b84 04f5 3384

hourglass.0.lower_inner_module.lower_in_bottle_neck.residual_connection.bias f4 [21]
2.084277e-36 2.1149164e-36 2.099836e-36 2.1806113e-36 2.089669e-36 2.0924334e-36 2.1630099e-36 -8.4496727e-22
-6.0490273e-22 2.1123669e-36 -2.1482818e-36 2.1520628e-36 -2.1401436e-36 2.1369304e-36 2.1421467e-36 2.1131364e-36
2.1209411e-36 2.1558663e-36 -4.7808126e-22 -7.974599e-22 2.1331877e-36
00000000: 894f 3104 cdea 3304 61a2 3204 8281 3904
00000010: f6c4 3104 2a01 3204 2f02 3804 2d60 7f9c
00000020: 15d2 369c 47b3 3304 6fc1 3684 c713 3704
00000030: 3310 3684 39ca 3504 d33b 3604 09c4 3304
00000040: 026e 3404 9c66 3704 bf7d 109c 7904 719c
00000050: b778 3504

hourglass.0.lower_inner_module.lower_inner_module.lower_in_bottle_neck.residual_connection.weight f4 [28, 21, 1, 1, 1]
2.2254987e-36 2.2744164e-36 2.1537176e-36 2.2609094e-36 2.1425779e-36 2.2106302e-36 2.2181842e-36 -2.0909317e-36
2.142685e-36 -2.217439e-36 2.219571e-36 2.0935008e-36 2.1976733e-36 2.1828065e-36 2.197132e-36 2.1926503e-36
2.151386e-36 -2.2880823e-36 2.230029e-36 2.2456636e-36 2.3348174e-36 2.2163369e-36 2.257204e-36 2.1631385e-36
2.2128389e-36 2.3763249e-36 2.2112201e-36 2.147462e-36 -2.252926e-36 2.2081289e-36 -2.166203e-36 2.2597057e-36
2.1529003e-36 2.2923358e-36 2.1463611e-36 2.143213e-36 2.2591889e-36 2.2096445e-36 -2.1503893e-36 -2.3486627e-36
2.3034586e-36 -2.1648064e-36 2.2532429e-36 2.228125e-36 2.1596943e-36 -2.1931195e-36 2.2497571e-36 2.2307177e-36
2.1557841e-36 -2.151028e-36 2.1524152e-36 -2.2197656e-36 2.1892843e-36 -2.2755387e-36 2.2365021e-36 2.1932984e-36
2.1358845e-36 2.2156022e-36 -2.2903527e-36 -2.0892353e-36 2.160641e-36 2.1837866e-36 -2.1433325e-36 -2.2731063e-36
2.2008918e-36 2.2073806e-36 2.1111399e-36 2.1038233e-36 2.2813365e-36 2.1715855e-36 -2.1872225e-36 2.2243081e-36
-2.2372203e-36 2.2233831e-36 2.189391e-36 2.2355303e-36 2.1836138e-36 2.2069323e-36 2.2160436e-36 2.2532973e-36
2.2435613e-36 2.152115e-36 2.3119827e-36 -2.2723779e-36 2.2802022e-36 2.2480587e-36 2.1764512e-36 2.2154747e-36
2.1376952e-36 2.1684266e-36 2.2573773e-36 -2.2581884e-36 2.1324254e-36 -2.1710652e-36 2.1927423e-36 2.1984808e-36
2.089101e-36 2.1372163e-36 2.2097486e-36 2.2752877e-36 2.2824317e-36 -2.1820415e-36 -2.2514792e-36 -2.1271284e-36
-2.2354152e-36 -2.2946833e-36 -2.2993382e-36 -2.109923e-36 -2.316526e-36 -2.269817e-36 2.249604e-36 2.183215e-36
2.1314915e-36 2.3459654e-36 2.1723147e-36 2.2126952e-36 -2.2396604e-36 -2.1670748e-36 2.160456e-36 -2.1665113e-36
-2.19676e-36 2.3649129e-36 2.28547e-36 -2.0993926e-36 2.225962e-36 2.2272931e-36 2.163544e-36 2.2754684e-36
2.2337381e-36 -2.1674865e-36 2.3428302e-36 2.1716623e-36 2.2387966e-36 -2.1745503e-36 2.2059299e-36 2.1348994e-36
2.0873624e-36 2.184685e-36 2.2746817e-36 2.1412875e-36 -2.2767973e-36 2.1570847e-36 2.2247276e-36 -2.1298207e-36
2.1434765e-36 -2.2257147e-36 2.3418376e-36 2.1067545e-36 2.2317165e-36 2.255394e-36 2.260218e-36 2.1709153e-36
-2.1557945e-36 2.151547e-36 -2.1069606e-36 -2.2152772e-36 -2.1093022e-36 2.2351149e-36 2.1953699e-36 2.107256e-36
2.2754203e-36 2.1654423e-36 2.3591418e-36 2.3087795e-36 -2.2159905e-36 2.28212e-36 2.1823615e-36 -2.2641563e-36
-2.2350564e-36 -2.3667044e-36 -2.3320227e-36 2.349629e-36 2.2224265e-36 2.2099272e-36 2.335047e-36 2.280102e-36
-2.2503356e-36 2.3165568e-36 2.2456435e-36 2.3523876e-36 2.247282e-36 2.156349e-36 -2.281206e-36 -2.2756522e-36
2.1262168e-36 -2.205225e-36 2.1154663e-36 2.250765e-36 -2.2018297e-36 2.274047e-36 -2.1487947e-36 -2.2149138e-36
2.180953e-36 -2.3378186e-36 -2.1251401e-36 2.0859385e-36 -2.1800237e-36 -2.16017e-36 -2.2262558e-36 -2.1071479e-36
2.2716947e-36 -2.1791401e-36 2.199615e-36 -2.1839134e-36 2.1242974e-36 2.1867036e-36 -2.1520938e-36 -2.1808715e-36
-2.3083577e-36 -2.089193e-36 2.2683968e-36 2.2055439e-36 -2.2330635e-36 -2.1111564e-36 -2.2666498e-36 -2.3005373e-36
2.1911601e-36 -2.1985402e-36 2.2538671e-36 -2.1812783e-36 -2.1436572e-36 -2.2117557e-36 2.2235413e-36 -2.2368989e-36
-2.2725016e-36 2.1326451e-36 -2.1376685e-36 -2.1292928e-36 2.1636696e-36 -2.220731e-36 -2.2863823e-36 2.2792236e-36
2.1605e-36 -2.204077e-36 -2.147728e-36 2.2227394e-36 2.3061592e-36 2.193452e-36 -2.2744142e-36 2.2208379e-36
-2.2325179e-36 2.2592804e-36 2.186742e-36 2.2550644e-36 2.2309057e-36 2.3188097e-36 2.2132676e-36 -2.1636448e-36
2.3131726e-36 2.2416519e-36 -2.172396e-36 -2.2183664e-36 2.2931514e-36 2.1139044e-36 -2.1536925e-36 2.3061714e-36
00000000: 1253 3d04 677c 4104 d137 3704 3f56 4004
00000010: 3745 3604 430f 3c04 c6b3 3c04 76e0 3184
00000020: 8c47 3604 8ca3 3c84 fad1 3c04 6918 3204
00000030: 16f5 3a04 51b1 3904 4ce9 3a04 b287 3a04
00000040: 0a05 3704 05a6 4284 bbb5 3d04 390a 3f04
00000050: d29f 4604 8b8b 3c04 8d05 4004 fc04 3804
00000060: 5d3f 3c04 c627 4a04 1c1c 3c04 95af 3604
00000070: 62a8 3f84 cad8 3b04 b947 3884 083c 4004
00000080: 0426 3704 a702 4304 9b97 3604 0c53 3604
00000090: c730 4004 ccf9 3b04 55ef 3684 58cd 4784
000000a0: e3f4 4304 4f29 3884 49af 3f04 448c 3d04
000000b0: fab9 3704 ea91 3a84 5f63 3f04 bbc4 3d04
000000c0: d264 3704 3efd 3684 741b 3704 37d6 3c84
000000d0: 643e 3a04 d894 4184 b442 3e04 cf95 3a04
000000e0: 72b3 3504 8b7b 3c04 77d7 4284 84bb 3184
000000f0: 98ce 3704 a9c6 3904 a655 3684 df5f 4184
00000100: 2e3b 3b04 7ec8 3b04 8e98 3304 37f9 3204
00000110: 1c13 4204 f2bc 3804 7d11 3a84 2439 3d04
00000120: 5852 3e84 ff24 3d04 b740 3a04 8a2d 3e04
00000130: e6c2 3904 bbbe 3b04 2885 3c04 78b0 3f04
00000140: 70dc 3e04 ea14 3704 86ae 4404 0250 4184
00000150: 68fa 4104 623e 3f04 e926 3904 c478 3c04
00000160: e1da 3504 2678 3804 5309 4004 fd1a 4084
00000170: 1d68 3504 9db1 3884 b389 3a04 ac06 3b04
00000180: 97b8 3104 73d0 3504 10fc 3b04 618f 4104
00000190: f62a 4204 a8a0 3984 e088 3f84 c1f4 3484
000001a0: 082b 3e84 c735 4384 279b 4384 0e7e 3384
000001b0: 7811 4584 3d18 4184 0960 3f04 36ba 3904
000001c0: c653 3504 9a92 4704 d3cc 3804 3c3c 3c04
000001d0: 7c87 3e84 b65a 3884 91ca 3704 704e 3884
000001e0: 32e1 3a84 3e2f 4904 216d 4204 b998 3284
000001f0: 295d 3d04 267a 3d04 d10d 3804 5093 4104
00000200: 8206 3e04 ad63 3884 534e 4704 9ebe 3804
00000210: ac74 3e04 83fd 3884 e6a8 3b04 fe9d 3504
00000220: ba92 3104 3ada 3904 2e82 4104 1d29 3604
00000230: 41b0 4184 2581 3704 4742 3d04 632f 3584
00000240: c958 3604 c657 3d84 b538 4704 0d39 3304
00000250: 7bda 3d04 22de 3f04 3047 4004 59ae 3804
00000260: 0c65 3784 8b08 3704 8a3d 3384 7774 3c84
00000270: 8970 3384 7e24 3e04 ecc2 3a04 f943 3304
00000280: 4492 4104 2837 3804 8fb1 4804 c468 4404
00000290: 0084 3c84 2c24 4204 a0a7 3904 f59c 4084
000002a0: 3823 3e84 4256 4984 f562 4684 63e2 4704
000002b0: 2a10 3d04 f4ff 3b04 d2a4 4604 39f8 4104
000002c0: f86f 3f84 2412 4504 c909 3f04 771e 4804
000002d0: 782d 3f04 1f71 3704 4410 4284 5197 4184
000002e0: e7e0 3404 8c99 3b84 c7f6 3304 5279 3f04
000002f0: 9b4f 3b84 5c74 4104 9bcc 3684 8d6c 3c84
00000300: f388 3904 2ee1 4684 74c9 3484 b873 3104
00000310: b674 3984 56c4 3784 8f63 3d84 9e41 3384
00000320: 2141 4104 7861 3984 5f1f 3b04 6cc9 3984
00000330: 1ab7 3404 3006 3a04 7414 3784 2d87 3984
00000340: 945f 4484 98ba 3184 4ff9 4004 7ea0 3b04
00000350: d1f7 3d84 ea98 3384 43d3 4084 44b5 4384
00000360: 3e67 3a04 f707 3b84 e1bc 3f04 0990 3984
00000370: b85c 3684 c627 3c84 7128 3d04 584b 3e84
00000380: b452 4184 e66c 3504 4cda 3584 e423 3584
00000390: 8d10 3804 3deb 3c84 ff80 4284 18e5 4104
000003a0: 86cb 3704 8c80 3b84 60b5 3684 fa16 3d04
000003b0: b32f 4404 2899 3a04 5b7c 4184 91ed 3c04
000003c0: efeb 3d84 c532 4004 0607 3a04 f4d6 3f04
000003d0: d3c8 3d04 3443 4504 b348 3c04 0310 3884
000003e0: 70c8 4404 dbb2 3e04 98ce 3884 beb7 3c84
000003f0: 6a14 4304 c3d4 3304 4537 3784 f72f 4404

hourglass.0.lower_inner_module.lower_inner_module.lower_in_bottle_neck.residual_connection.bias f4 [28]
2.2047138e-36 -2.1169535e-36 -2.1990799e-36 2.1914826e-36 2.1808423e-36 2.1755585e-36 2.08596e-36 -2.1186838e-36
-2.1621866e-36 -2.1619304e-36 -2.186453e-36 2.0915681e-36 -2.1722492e-36 -2.1442706e-36 2.1777586e-36 2.1769423e-36
2.125654e-36 -2.202187e-36 2.1371406e-36 2.1195778e-36 2.197576e-36 2.1298357e-36 -2.131832e-36 2.182396e-36
2.1079884e-36 2.1308321e-36 -2.1708758e-36 -2.0805527e-36
00000000: 6a8e 3b04 2a17 3484 b813 3b84 446e 3a04
00000010: 8a86 3904 7813 3904 3074 3104 d93c 3484
00000020: 41f0 3784 adea 3784 bb00 3a84 52ee 3104
00000030: 66cb 3884 146a 3684 6243 3904 9b31 3904
00000040: a5d4 3404 6357 3b84 cdce 3504 5150 3404
00000050: f8f2 3a04 b72f 3504 315b 3584 60a8 3904
00000060: ec53 3304 6a45 3504 7dad 3884 6dfe 3084

hourglass.0.lower_inner_module.lower_inner_module.lower_out_bottle_neck.residual_connection.weight f4 [21, 29, 1, 1, 1]
-2.152738e-36 -2.1824383e-36 -2.2379936e-36 -2.3179249e-36 -2.2753909e-36 -2.2604961e-36 -2.1568506e-36 -2.1429727e-36
-2.110665e-36 2.2796738e-36 2.2398446e-36 -2.2675969e-36 2.2275232e-36 2.1597972e-36 -2.2461793e-36 2.3642344e-36
2.1908441e-36 -2.27235e-36 2.287519e-36 -2.196499e-36 -2.098927e-36 2.1399405e-36 -2.3253207e-36 -2.1557536e-36
-2.3150392e-36 2.2108721e-36 -2.1025852e-36 -2.2143093e-36 -2.1767515e-36 -2.3093096e-36 2.3100658e-36 -2.2037265e-36
-2.1580438e-36 -2.1021724e-36 -2.3000272e-36 2.2263299e-36 -2.1839313e-36 -2.205438e-36 2.2349163e-36 -2.2828993e-36
-2.264569e-36 -2.2701155e-36 -2.2291309e-36 -2.1493701e-36 -2.2338647e-36 -2.3035826e-36 -2.1971919e-36 -2.2398575e-36
-2.272972e-36 -2.2972721e-36 -2.2382585e-36 -2.2147568e-36 -2.1938334e-36 -2.1465858e-36 -2.2713329e-36 -2.3769746e-36
-2.0848772e-36 -2.1768392e-36 -2.1116134e-36 -2.1951505e-36 -2.2449088e-36 2.2495413e-36 -2.1898585e-36 2.2323494e-36
-2.2362455e-36 -2.1758401e-36 -2.171456e-36 -2.2238351e-36 2.1515028e-36 -2.2196229e-36 2.153884e-36 2.1815662e-36
-2.3420338e-36 -2.1189226e-36 2.2440427e-36 -2.1311869e-36 2.2602075e-36 -2.172072e-36 -2.1997543e-36 2.3305795e-36
2.2616112e-36 -2.158773e-36 -2.257281e-36 2.2019074e-36 -2.154728e-36 -2.3443794e-36 -2.1869545e-36 -2.2443754e-36
-2.3129832e-36 -2.1818865e-36 -2.1412307e-36 -2.1647262e-36 -2.2087723e-36 -2.3386505e-36 -2.2911206e-36 2.2697407e-36
-2.1812383e-36 2.1466208e-36 -2.2003338e-36 -2.1869484e-36 -2.1965732e-36 2.3064302e-36 -2.2291872e-36 -2.1584278e-36
-2.1625085e-36 -2.1703352e-36 -2.1543164e-36 -2.1695388e-36 -2.1772126e-36 2.3236499e-36 -2.1647492e-36 -2.1698145e-36
-2.1293323e-36 -2.243052e-36 -2.1546606e-36 -2.1742945e-36 2.1459518e-36 2.1495739e-36 2.175628e-36 2.2340007e-36
2.2280748e-36 2.2102065e-36 2.237476e-36 2.2149464e-36 2.2034873e-36 2.1522953e-36 -2.231024e-36 2.2646038e-36
2.2392324e-36 -2.2444789e-36 2.2196313e-36 2.1116369e-36 2.201531e-36 -2.2171317e-36 -2.3155468e-36 2.1374459e-36
2.2632668e-36 -2.2708732e-36 2.1320412e-36 2.2756197e-36 2.2954272e-36 -2.1523926e-36 2.1823264e-36 2.1288512e-36
-2.2091685e-36 -2.2542127e-36 -2.2673689e-36 -2.2695405e-36 -2.2661551e-36 -2.1526267e-36 -2.1624924e-36 -2.1807546e-36
-2.163887e-36 -2.1672438e-36 -2.231441e-36 -2.164586e-36 -2.207619e-36 -2.2586605e-36 -2.21408e-36 -2.1628127e-36
-2.2523728e-36 2.2327544e-36 2.1254893e-36 -2.2007706e-36 -2.2147807e-36 -2.1607066e-36 2.15134e-36 -2.1082472e-36
-2.263527e-36 -2.1901584e-36 2.2374372e-36 -2.2515771e-36 -2.1498856e-36 -2.182136e-36 -2.1469168e-36 2.2232712e-36
2.239437e-36 -2.1268373e-36 2.1154981e-36 -2.1454433e-36 2.2866233e-36 -2.3318571e-36 2.2047765e-36 2.2449978e-36
-2.138186e-36 2.1995656e-36 2.2319636e-36 -2.2615912e-36 2.1614497e-36 -2.3272725e-36 2.2668001e-36 -2.34167e-36
2.2185232e-36 -2.2310788e-36 -2.2173756e-36 2.2622783e-36 -2.1024908e-36 2.1668702e-36 2.1989635e-36 -2.1254127e-36
2.3419612e-36 -2.161514e-36 -2.140702e-36 2.1325775e-36 2.1239502e-36 2.1345452e-36 2.1546785e-36 2.093688e-36
2.1385987e-36 2.1349409e-36 2.259543e-36 2.205789e-36 2.2225754e-36 2.222236e-36 2.1667992e-36 2.1901345e-36
-2.2659655e-36 2.1945719e-36 2.1182236e-36 2.2288758e-36 2.1300207e-36 2.1070882e-36 2.2424865e-36 2.2620785e-36
2.2243477e-36 2.141427e-36 2.2126635e-36 2.2980857e-36 2.3478554e-36 2.2542296e-36 2.2810544e-36 -2.2359398e-36
2.2623784e-36 2.2023712e-36 2.2246984e-36 2.1556916e-36 2.202377e-36 2.2543991e-36 2.249176e-36 2.181467e-36
2.2523766e-36 2.1991597e-36 -2.129736e-36 2.2175609e-36 2.2072663e-36 -2.1175861e-36 2.3152814e-36 2.114419e-36
2.1923701e-36 2.2217306e-36 2.2305927e-36 2.2184068e-36 2.1222857e-36 2.1424213e-36 2.2362535e-36 2.2269597e-36
00000000: 7b22 3784 4ca9 3984 2f63 3e84 ef2f 4584
00000010: a091 4184 3f4d 4084 0c7c 3784 d04d 3684
00000020: 378e 3384 e6ee 4104 7f8b 3e04 e3e7 4084
00000030: 297f 3d04 38bc 3704 7415 3f84 7720 4904
00000040: 5c60 3a04 674f 4184 c199 4204 83db 3a84
00000050: 958e 3284 c70b 3604 00d1 4584 2864 3784
00000060: 17f1 4484 8814 3c04 40de 3284 635f 3c84
00000070: 732d 3984 4f74 4484 c784 4404 ea78 3b84
00000080: 0896 3784 43d5 3284 28aa 4384 2c65 3d04
00000090: d0c9 3984 309e 3b84 2b20 3e04 2535 4284
000000a0: f2a5 4084 bd1e 4184 2ca2 3d84 23d9 3684
000000b0: 4409 3e84 96f7 4384 9aea 3a84 c78b 3e84
000000c0: f25c 4184 286e 4384 f468 3e84 2269 3c84
000000d0: 76a1 3a84 809c 3684 4039 4184 ec35 4a84
000000e0: 9b5c 3184 5c2f 3984 dea2 3384 25be 3a84
000000f0: c9f9 3e84 ac5e 3f04 e54a 3a84 44e8 3d04
00000100: 1d3d 3e84 9a19 3984 20ba 3884 d72e 3d84
00000110: 9507 3704 1bd3 3c84 713b 3704 4e96 3904
00000120: fb3c 4784 0c42 3484 ece6 3e04 244d 3584
00000130: f646 4004 8ac7 3884 6822 3b84 8743 4604
00000140: 8865 4004 eaa5 3784 3a07 4084 4c51 3b04
00000150: d24d 3784 1070 4784 a70b 3a84 2bee 3e84
00000160: 50c4 4484 489d 3984 e027 3684 9027 3884
00000170: cde6 3b84 4cf3 4684 30e8 4284 9316 4104
00000180: 2a8f 3984 439d 3604 072f 3b84 850b 3a84
00000190: 21dd 3a84 9a35 4404 66a3 3d84 659e 3784
000001a0: 44f7 3784 b7a1 3884 db44 3784 5f90 3884
000001b0: 7e37 3984 9dac 4504 1028 3884 6096 3884
000001c0: c024 3584 59d1 3e84 5a4c 3784 f1f7 3884
000001d0: b18e 3604 93dd 3604 fb14 3904 3a0c 3e04
000001e0: 2c8b 3d04 0906 3c04 ea57 3e04 436d 3c04
000001f0: b473 3b04 d718 3704 66cb 3d84 b4a6 4004
00000200: 2a7e 3e04 6cf0 3e84 4ad3 3c04 61a3 3304
00000210: 1949 3b04 da9c 3c84 25fc 4484 73d5 3504
00000220: 9689 4004 3d2f 4184 bf5f 3504 9c96 4104
00000230: fa45 4304 f61a 3784 dca6 3904 461a 3504
00000240: 6eef 3b84 68c4 3f84 ece2 4084 3712 4184
00000250: 7dc8 4084 0f20 3784 eaf6 3784 a184 3984
00000260: 4915 3884 645e 3884 7bd4 3d84 8224 3884
00000270: afcd 3b84 4525 4084 645a 3c84 e4fd 3784
00000280: 569c 3f84 16f1 3d04 0fd1 3404 8a38 3b84
00000290: a769 3c84 06d0 3784 0904 3704 8f59 3384
000002a0: 418f 4084 6d51 3a84 1157 3e04 028b 3f84
000002b0: 5de4 3684 b7a2 3984 b5a3 3684 8f22 3d04
000002c0: 9e82 3e04 6aee 3484 78f7 3304 9e83 3684
000002d0: 3f86 4204 5a5f 4684 c88f 3b04 b9fb 3e04
000002e0: 91e5 3584 4c1e 3b04 dddf 3d04 1865 4084
000002f0: 35e0 3704 82fb 4584 89d6 4004 0f35 4784
00000300: 28bb 3c04 98cc 3d84 2aa2 3c84 0f74 4004
00000310: 32dc 3284 4156 3804 2f11 3b04 64cf 3484
00000320: 663b 4704 9be1 3784 5c1c 3684 6d6b 3504
00000330: 8aaf 3404 4796 3504 be4c 3704 7d1c 3204
00000340: 8eee 3504 e59e 3504 7d38 4004 d5a5 3b04
00000350: 6813 3d04 040c 3d04 b554 3804 e850 3a04
00000360: 5cc4 4084 8bb1 3a04 d332 3404 9e9c 3d04
00000370: be33 3504 5140 3304 08c5 3e04 b56f 4004
00000380: 013a 3d04 262c 3604 8b3b 3c04 e07f 4304
00000390: c3bb 4704 c6c4 3f04 f70c 4204 7536 3e84
000003a0: 3d76 4004 665b 3b04 a441 3d04 ce62 3704
000003b0: 865b 3b04 77c8 3f04 b756 3f04 2594 3904
000003c0: 6b9c 3f04 7515 3b04 8b2d 3584 33a6 3c04
000003d0: 01c6 3b04 f124 3484 5df6 4404 f8df 3304
000003e0: 9881 3a04 0201 3d04 02c2 3d04 9fb8 3c04
000003f0: 4a8b 3404 ce41 3604 4a3d 3e04 e372 3d04

hourglass.0.lower_inner_module.lower_inner_module.lower_out_bottle_neck.residual_connection.bias f4 [21]
-2.1098877e-36 -2.1373792e-36 -2.1048362e-36 -2.117657e-36 -2.2041147e-36 -2.1883436e-36 -2.1051123e-36 -2.0938845e-36
-2.1985445e-36 -2.1062832e-36 -2.0925713e-36 -2.0843354e-36 -2.1587894e-36 -2.1095828e-36 -2.2090951e-36 -2.1918607e-36
-2.1352702e-36 -2.0938965e-36 -2.2019148e-36 -2.130701e-36 -2.0989704e-36
00000000: 497d 3384 ffd3 3584 460f 3384 7c26 3484
00000010: 5e81 3b84 e729 3a84 4915 3384 c420 3284
00000020: 0f08 3b84 c92e 3384 2b04 3284 ce50 3184
00000030: 45a6 3784 a576 3384 d5ed 3b84 8076 3a84
00000040: 11a6 3584 0721 3284 7551 3b84 8f42 3584
00000050: 878f 3284

hourglass.0.lower_inner_module.lower_out_bottle_neck.residual_connection.weight f4 [14, 21, 1, 1, 1]
2.158216e-36 2.1896237e-36 2.150296e-36 2.0815956e-36 2.1701266e-36 2.1328573e-36 2.2190256e-36 1.0373758e-31
8.784173e-32 2.1806199e-36 2.1935208e-36 2.1188702e-36 2.2001833e-36 2.2028787e-36 2.121119e-36 2.1376313e-36
2.2251237e-36 2.1106835e-36 8.645712e-32 8.927728e-32 2.2070622e-36 2.0893504e-36 2.1044127e-36 2.1535329e-36
2.1460277e-36 2.1173721e-36 2.2148393e-36 2.2121394e-36 1.3565715e-28 9.4211804e-29 2.1109849e-36 2.1021072e-36
2.1503954e-36 2.118323e-36 2.1705895e-36 2.196201e-36 2.132557e-36 2.1376878e-36 2.1707321e-36 1.6404732e-28
1.1569055e-28 2.2254528e-36 -2.1750398e-36 -2.1350601e-36 -2.1232412e-36 -2.1820243e-36 -2.1256879e-36 -2.2174335e-36
-2.2277889e-36 7.471693e-27 6.572349e-27 -2.1346413e-36 -2.1247509e-36 -2.093463e-36 -2.1259008e-36 -2.100834e-36
-2.105465e-36 -2.138433e-36 -2.3010582e-36 -2.1441165e-36 5.5481778e-27 7.1691625e-27 -2.1927457e-36 2.108729e-36
2.2195335e-36 2.1894777e-36 2.219703e-36 2.2173505e-36 -2.1896766e-36 2.1136065e-36 -6.028264e-30 -5.9251366e-30
2.1510612e-36 2.2146905e-36 2.1854441e-36 -2.1387334e-36 2.1668291e-36 2.1521188e-36 2.0877032e-36 2.1772736e-36
-2.100607e-36 -7.833816e-30 -8.889201e-30 2.1335337e-36 2.192853e-36 2.1694208e-36 2.0987695e-36 2.0917134e-36
2.127294e-36 2.1878343e-36 2.1466271e-36 4.4506807e-31 4.223727e-31 2.204422e-36 2.2080466e-36 2.1858705e-36
-2.1476174e-36 2.092532e-36 2.195127e-36 2.0905547e-36 2.2070843e-36 2.1015732e-36 3.2759276e-31 4.374638e-31
2.114996e-36 2.1367451e-36 2.1938492e-36 2.1215218e-36 2.141809e-36 2.1829767e-36 -2.1966991e-36 2.1532086e-36
-9.1209635e-30 -9.341409e-30 2.2005699e-36 -2.2178504e-36 2.1628454e-36 -2.1061807e-36 2.1926492e-36 2.1375612e-36
2.1655382e-36 2.088559e-36 -2.1446069e-36 -1.15549394e-29 -9.020562e-30 2.1167716e-36 -2.1864672e-36 -2.1282322e-36
-2.1536263e-36 -2.1524192e-36 -2.1357708e-36 -2.1233672e-36 -2.1343448e-36 -1.2166249e-27 -1.0260546e-27 -2.1721484e-36
-2.1461502e-36 -2.1332493e-36 -2.1753167e-36 -2.1499762e-36 -2.206409e-36 -2.185358e-36 -2.192797e-36 -2.1313386e-36
-9.542215e-28 -1.1216308e-27 -2.1714946e-36 2.1566978e-36 2.1459731e-36 2.233761e-36 2.1190352e-36 2.1784596e-36
2.1809165e-36 2.1665215e-36 2.7309217e-29 2.587715e-29 2.1209664e-36 2.093135e-36 2.2006655e-36 2.1165388e-36
2.0928743e-36 2.0971037e-36 2.1687717e-36 2.0967064e-36 2.2260915e-36 4.080207e-29 2.3908412e-29 2.09011e-36
2.0846234e-36 -2.1657443e-36 -2.1766222e-36 -2.1665945e-36 -2.1623094e-36 2.1495097e-36 -2.1477115e-36 3.758654e-30
4.9568178e-30 -2.1943252e-36 2.1926209e-36 -2.111515e-36 -2.0897077e-36 -2.0797174e-36 -2.1676933e-36 -2.1264188e-36
-2.1764417e-36 2.1848183e-36 3.7759557e-30 3.5843396e-30 -2.0753079e-36 -2.11405e-36 -2.1310906e-36 -2.0783677e-36
-2.1307171e-36 -2.1988225e-36 -2.0852503e-36 -2.0883408e-36 3.1795258e-27 2.6248796e-27 -2.134858e-36 -2.1994357e-36
-2.1176105e-36 -2.1895702e-36 -2.1069814e-36 -2.1202958e-36 -2.1405394e-36 -2.1404587e-36 -2.2234773e-36 2.4238127e-27
3.108177e-27 -2.3962941e-36 2.1530226e-36 2.1303683e-36 2.1682373e-36 2.1050305e-36 2.1323973e-36 2.2152503e-36
2.1440383e-36 -1.7967438e-32 -1.0495769e-32 2.1064433e-36 2.1692793e-36 2.0986242e-36 2.1627268e-36 2.0941203e-36
2.137395e-36 2.1575241e-36 2.1268123e-36 2.1617656e-36 -8.942018e-33 -1.0584089e-32 2.142602e-36 -2.0880956e-36
-2.0867154e-36 -2.182389e-36 -2.0844986e-36 -2.1504589e-36 -2.1707608e-36 -2.1521955e-36 -1.8047945e-26 -1.5990659e-26
-2.2175246e-36 -2.1326478e-36 -2.1118528e-36 -2.2159186e-36 -2.2048223e-36 -2.159829e-36 -2.1518945e-36 -2.2124418e-36
-2.1741216e-36 -1.5947267e-26 -1.7775244e-26 -2.2183598e-36 2.1750541e-36 2.2092693e-36 2.1941945e-36 2.1239549e-36
00000000: c899 3704 c845 3a04 4ded 3604 2315 3104
00000010: 2c9d 3804 8571 3504 19c6 3c04 b9a8 060c
00000020: d80c e40b b281 3904 a79a 3a04 e840 3404
00000030: c02b 3b04 7366 3b04 e271 3404 7dd9 3504
00000040: e74a 3d04 9e8e 3304 9d74 e00b eec6 e70b
00000050: 8fc1 3b04 06be 3104 0d06 3304 cb33 3704
00000060: 5890 3604 4820 3404 ee6a 3c04 2130 3c04
00000070: 43f7 2b11 f5da ee10 2e95 3304 d7d3 3204
00000080: 77ef 3604 fd34 3404 41a7 3804 06d5 3a04
00000090: fb6a 3504 b8da 3504 5caa 3804 66f4 4f11
000000a0: bba7 1211 1252 3d04 2c08 3984 7ea1 3584
000000b0: 19a0 3484 48a0 3984 62d5 3484 6da3 3c84
000000c0: f284 3d84 fcfd 1314 c52d 0214 5f98 3584
000000d0: fac0 3484 9617 3284 05da 3484 1db8 3284
000000e0: f81c 3384 f2ea 3584 9cc0 4384 b966 3684
000000f0: 35c9 db13 f9ff 0d14 c689 3a84 0d64 3304
00000100: 29d1 3c04 9a42 3a04 dad4 3c04 9ea1 3c04
00000110: ef46 3a84 46ce 3304 1389 f48e 235a f08e
00000120: f7fd 3604 b067 3c04 c2ea 3904 7df1 3584
00000130: 5c55 3804 ff14 3704 269a 3104 d238 3904
00000140: 2bb3 3284 80e3 1e8f 5f4b 348f 4080 3504
00000150: 1c8c 3a04 cd8d 3804 278b 3204 7cf1 3104
00000160: 5cf8 3404 d01e 3a04 669d 3604 cf6e 100d
00000170: 5a11 090d 0f88 3b04 ffd6 3b04 0bf4 3904
00000180: f7b2 3684 5003 3204 a2bd 3a04 40d8 3104
00000190: 0ac2 3b04 36c8 3204 af9e d40c 12f7 0d0d
000001a0: 89ec 3304 30c6 3504 cea1 3a04 a77a 3404
000001b0: 7834 3604 06b5 3904 dfdf 3a84 bb2c 3704
000001c0: c0fe 388f 5e77 3d8f 2b34 3b04 81ac 3c84
000001d0: 9afe 3704 8e2c 3384 ac87 3a04 f6d7 3504
000001e0: 3f39 3804 caac 3104 6771 3684 ad5c 6a8f
000001f0: 70f5 368f 3413 3404 0a01 3a84 cb0c 3584
00000200: d435 3784 8a1b 3784 f8b0 3584 d8a2 3484
00000210: ea91 3584 2bc8 c092 b895 a292 34c9 3884
00000220: 0393 3684 0e7a 3584 340e 3984 56e6 3684
00000230: 55b3 3b84 e2e8 3984 e48a 3a84 7250 3584
00000240: d333 9792 c0ba b192 f7ba 3884 b878 3704
00000250: 288f 3604 0207 3e04 8044 3404 a652 3904
00000260: 2888 3904 a94e 3804 6479 0a10 7636 0310
00000270: 8f6e 3404 7210 3204 4036 3b04 220e 3404
00000280: c40a 3204 e066 3204 aa7f 3804 395e 3204
00000290: fb5f 3d04 1de4 4e10 c975 f20f 91ce 3104
000002a0: 1457 3104 bc3d 3884 a22a 3984 4050 3884
000002b0: eef2 3784 2ddc 3604 04b5 3684 1878 980e
000002c0: 8a12 c90e 2cac 3a84 0e87 3a04 b9a0 3384
000002d0: cec5 3184 3cec 3084 2e68 3884 4de5 3484
000002e0: b426 3984 21dd 3904 c42b 990e e965 910e
000002f0: 348c 3084 efd7 3384 0b4b 3584 d7ce 3084
00000300: e942 3584 1d0e 3b84 bb64 3184 09a8 3184
00000310: 72e8 7b13 e2f6 4f13 179d 3584 781b 3b84
00000320: 7925 3484 9e44 3a84 fe3d 3384 f45f 3484
00000330: d218 3684 1017 3684 0c27 3d84 c308 4013
00000340: 5241 7613 aada 4b84 ae28 3704 503b 3504
00000350: 0774 3804 8113 3304 8067 3504 e173 3c04
00000360: 0565 3604 a595 ba8a 14fd 598a 4632 3304
00000370: b88a 3804 fd87 3204 05fc 3704 e725 3204
00000380: 57d4 3504 b78a 3704 dfed 3404 16e7 3704
00000390: ecb7 398a abd2 5b8a bd45 3604 b2a2 3184
000003a0: a384 3184 39a8 3984 5c54 3184 d9f0 3684
000003b0: fcaa 3884 ab16 3784 fabc b294 235d 9e94
000003c0: 69a5 3c84 f56c 3584 15a8 3384 6f82 3c84
000003d0: c790 3b84 e9bc 3784 1d10 3784 b736 3c84
000003e0: 2df4 3884 20ef 9d94 9909 b094 99b7 3c84
000003f0: 7c08 3904 a0f1 3b04 53a9 3a04 a4af 3404

hourglass.0.lower_inner_module.lower_out_bottle_neck.residual_connection.bias f4 [14]
-2.9557614e-26 -2.0814523e-22 -2.0705265e-20 -1.5058961e-27 -4.1225225e-25 -9.568218e-27 -4.147381e-24 -5.792558e-23
-1.03887735e-26 -7.0806434e-21 -8.0964676e-24 -1.6179543e-23 -2.673453e-29 -8.3064766e-22
00000000: ba5c 1295 d4a1 7b9b 428e c39e 679e ee92
00000010: fa2b ff96 a184 3d94 ac71 a098 330e 8c9a
00000020: 57c5 4d94 e4bf 059e c49b 1c99 9c7a 9c99
00000030: 678f 0790 400c 7b9c

hourglass.0.lower_out_bottle_neck.residual_connection.weight f4 [7, 14, 1, 1, 1]
3.6828816e-13 1.3242782e-14 -3.2666588e-11 -7.980509e-17 1.7406546e-19 2.151181e-17 -8.48778e-12 2.9095626e-14
1.9341955e-14 -5.0510906e-12 9.92557e-20 -1.4104623e-10 6.699767e-19 3.5997518e-13 3.2154252e-16 1.07206975e-16
1.3400014e-14 -1.9230407e-18 -6.165771e-20 3.769826e-18 1.4698783e-14 5.992999e-17 -9.2750544e-17 5.5478574e-15
2.2121054e-23 4.7759075e-14 3.548433e-22 7.733741e-16 -1.5140872e-13 -1.8479704e-14 -1.1843046e-11 -3.118823e-17
-7.22747e-20 4.978097e-17 -6.366126e-12 -7.935864e-15 2.0023772e-15 -2.2753173e-12 3.787836e-21 -5.4858354e-11
-1.7598852e-19 -8.6638e-14 -6.1308633e-18 -8.256956e-19 -6.7675815e-17 -9.75954e-22 -2.6329386e-24 -1.1591589e-20
-4.0740316e-17 -7.650864e-19 -4.160991e-20 -1.809754e-17 -3.5916707e-24 -2.761611e-16 -4.834641e-23 -4.1630495e-18
-6.307949e-15 -4.455009e-16 -9.088827e-14 1.1734906e-21 -5.3579906e-23 -6.7781563e-19 -3.5209174e-14 -5.8812547e-16
4.3288047e-19 -1.34514575e-14 -1.8454678e-22 -4.1946698e-13 -9.15228e-21 -3.8643375e-15 2.9147613e-12 3.0680731e-13
7.301533e-11 -1.9971066e-16 -1.287817e-18 -1.0007739e-16 4.1386387e-11 2.705297e-13 3.3954264e-15 1.4003152e-11
2.2051756e-19 3.7884162e-10 4.2882482e-18 1.8614606e-12 8.1610235e-15 1.670918e-15 4.956631e-13 -5.149217e-19
-1.1841737e-20 5.972703e-19 2.4953084e-13 5.704029e-16 -3.796051e-17 6.107447e-14 9.421191e-23 2.5948304e-12
1.0734912e-20 5.669691e-15
00000000: eb53 cf2a 8d8f 6e28 4fab 0fae 9c04 b8a4
00000010: 0f80 4d20 5369 c623 9051 15ad f908 0329
00000020: 8337 ae28 2eb8 b1ac 645c ea1f fc14 1baf
00000030: 02be 4521 e4a5 ca2a 4d5b b925 d433 f724
00000040: a864 7128 36e5 0da2 cc95 919f 0015 8b22
00000050: 1665 8428 6c30 8a24 42de d5a4 f4e1 c727
00000060: 14f1 d519 7716 5729 577d d61b f0e8 5e26
00000070: 9878 2aaa 4c73 a6a8 5658 50ad 90d4 0fa4
00000080: 60a7 aa9f ff92 6524 f7fc dfac b7f5 0ea8
00000090: 5749 1027 791c 20ac b419 8f1d 0445 71ae
000000a0: 44c5 4fa0 6817 c3a9 5e30 e2a2 ccb3 73a1
000000b0: c00c 9ca4 647b 939c b9b6 4b98 7cf5 5a9e
000000c0: ade1 3ba4 4bd0 61a1 4b7f 449f 9ceb a6a3
000000d0: 2ff2 8a98 2f32 9fa5 f5c9 699a e496 99a2
000000e0: 8f44 e3a7 2a68 00a6 85a9 cca9 3855 b11c
000000f0: 5b8c 819a 4d0e 48a1 6a91 1ea9 0084 29a6
00000100: 0c87 ff20 e651 72a8 761a 5f9b 9023 ecaa
00000110: b6e1 2c9e 393a 8ba7 ac1b 4d2c 98b7 ac2a
00000120: fa8f a02e 2f40 66a5 5a0c bea1 44c3 e6a4
00000130: ee04 362e 704b 982a 90aa 7427 9758 762d
00000140: ac2b 8220 3845 d02f 5c35 9e22 18fd 022c
00000150: 1404 1328 fecd f026 4a84 0b2b 62fa 17a1
00000160: 20af 5f9e 7848 3021 2f79 8c2a 4e68 2426
00000170: dc0f 2fa4 0987 8929 59ca e31a 4f98 362c
00000180: d9c6 4a1e ab45 cc27

hourglass.0.lower_out_bottle_neck.residual_connection.bias f4 [7]
-7.472287e-08 -1.09863414e-07 -3.390282e-08 -6.3509315e-12 -5.1686317e-09 -1.498517e-07 -2.8924507e-10
00000000: 5577 a0b3 0dee ebb3 8b9c 11b3 1b74 dfac
00000010: c497 b1b1 ece6 20b4 a003 9faf

outputs.0.5.weight f4 [1, 3, 1, 1, 1]
0.0009031998 -0.0005607741 0.00066107407
00000000: b6c4 6c3a ea00 13ba ee4b 2d3a

344 f4 [7, 2, 5, 5, 5]
-0.0119233085 -0.009940087 -0.010589181 -0.0093027335 -0.0045962855 -0.013365319 -0.013858219 -0.014614991
-0.013212724 -0.00957765 -0.014003829 -0.015057227 -0.015712105 -0.014420778 -0.010646969 -0.014103305
-0.016035486 -0.016415134 -0.01481189 -0.0098448815 -0.011795619 -0.014405824 -0.014916734 -0.01280002
-0.0061223507 -0.0047745504 -0.007921864 -0.008832936 -0.009467787 -0.0048890193 -0.008730719 -0.012220787
-0.013744588 -0.012929246 -0.009541452 -0.011333802 -0.014009284 -0.015163906 -0.0142563125 -0.010481918
-0.011011193 -0.014157324 -0.015088307 -0.013951549 -0.009597648 -0.009784929 -0.0130325705 -0.013763295
-0.0127427345 -0.006832882 -0.002123167 -0.0075407857 -0.009952393 -0.009263977 -0.005757496 -0.00813868
-0.011990312 -0.013446227 -0.012707927 -0.01021886 -0.010933241 -0.0138487425 -0.015196317 -0.014084722
-0.01140181 -0.011075524 -0.013949822 -0.015240131 -0.0138990395 -0.01079632 -0.009948015 -0.013112197
-0.0142843705 -0.01370206 -0.008596172 -0.0013790552 -0.006502784 -0.009024799 -0.0072012665 -0.0039523756
-0.009116513 -0.011793356 -0.012824409 -0.0117734885 -0.009325193 -0.011641102 -0.013573658 -0.01465507
-0.012985349 -0.010413215 -0.01146098 -0.0139107015 -0.0150780855 -0.013107251 -0.009536558 -0.009437804
-0.012688051 -0.013463799 -0.012079145 -0.0071480884 -0.0016838564 -0.0042591747 -0.005800233 -0.005942968
-0.0015259092 -0.008981055 -0.01132437 -0.011038698 -0.0097767655 -0.007184521 -0.01127849 -0.013270999
-0.013364602 -0.011525689 -0.008572754 -0.010577767 -0.013052956 -0.013537096 -0.011549468 -0.007991555
-0.0069711083 -0.010705222 -0.010846403 -0.009432993 -0.0042197886 -0.001334306 -0.0044604647 -0.004376279
-0.0022313036 0.0012002512 -0.0015346289 -0.0048008934 -0.006317187 -0.0052052485 -0.00195611 -0.0003104326
-0.0037102243 -0.0059173726 -0.005842247 -0.0028589545 0.0019855942 -0.00045995566 -0.0026183375 -0.0028702156
-0.00023082277 0.0052272025 0.0034876934 0.002042838 0.0020331964 0.0047190725 0.0006182091 -0.003298155
-0.004521269 -0.0032007962 -0.000764827 -0.00034300968 -0.0044291397 -0.0068143285 -0.006259326 -0.003432142
0.0004340218 -0.004012284 -0.0069801873 -0.007132857 -0.0044654743 0.00231318 -0.0016292115 -0.0045226
-0.004902232 -0.0020420211 0.004831393 0.0010867928 -0.0011683704 -0.00066546066 0.0026187836 0.0002921845
-0.0036216846 -0.0040849023 -0.0028799037 -0.00033369978 -0.00088294054 -0.0050462135 -0.006477147 -0.005955885
-0.0030390832 -0.00028228434 -0.0047968025 -0.0070026023 -0.0069897124 -0.0037278228 0.0007479529 -0.00343977
-0.0054245493 -0.005021503 -0.0011388765 0.0031127087 -0.0008505907 -0.0029880558 -0.0011683891 0.0034396735
0.0011986617 -0.003348719 -0.0043187058 -0.0022187987 0.0011426825 -0.0004104638 -0.005690394 -0.008216837
-0.006382042 -0.0023527166 -0.0012197511 -0.0065350956 -0.009342597 -0.0077703143 -0.0032723306 -0.00048214028
-0.005388895 -0.0076361466 -0.0058607347 -0.0012154653 0.001654022 -0.0024004816 -0.004742612 -0.0026111945
0.002339568 0.002027287 -0.0023019935 -0.0031904401 -0.0010107945 0.0033609509 -0.00029230435 -0.005325102
-0.0072028283 -0.0053880503 -0.0006307263 -0.0018862861 -0.0067485725 -0.008602786 -0.0070401765 -0.0020652278
-0.0015491401 -0.005320028 -0.0063805585 -0.00527079 -0.00063710765 0.001612125 -0.0012227079 -0.0028282437
-0.001814673 0.0026069407 -0.005636309 -0.0051864944 -0.0013351673 -0.0012119955 0.0051566316 -0.005223453
00000000: fb59 43bc bfdb 22bc 3f7e 2dbc 7e6a 18bc
00000010: 709c 96bb 36fa 5abc 950d 63bc b773 6fbc
00000020: 2e7a 58bc 93eb 1cbc 5170 65bc 96b2 76bc
00000030: acb6 80bc 2045 6cbc a070 2ebc 8c11 67bc
00000040: da5c 83bc 0879 86bc 92ad 72bc 6d4c 21bc
00000050: 6942 41bc 6806 6cbc 5165 74bc 2db7 51bc
00000060: 009e c8bb d573 9cbb b5ca 01bc 05b8 10bc
00000070: c71e 1bbc 1134 a0bb 4a0b 0fbc b239 48bc
00000080: fb30 61bc 30d5 53bc c053 1cbc 69b1 39bc
00000090: 3287 65bc 0872 78bc 4f93 69bc 5abc 2bbc
000000a0: 4a68 34bc 1ff4 67bc f234 77bc 0a95 64bc
000000b0: 743f 1dbc f850 20bc 9086 55bc 717f 61bc
000000c0: e7c6 50bc 5ee6 dfbb d524 0bbb b218 f7bb
000000d0: 5d0f 23bc f0c7 17bc 61a9 bcbb 1958 05bc
000000e0: 0373 44bc 904d 5cbc e934 50bc 016d 27bc
000000f0: 5621 33bc d6e5 62bc f9f9 78bc 9bc3 66bc
00000100: a8ce 3abc 1d76 35bc cb8d 64bc beb1 79bc
00000110: ccb8 63bc 0ce3 30bc 00fd 22bc 8ad4 56bc
00000120: fe08 6abc 9b7e 60bc f5d6 0cbc 6ac1 b4ba
00000130: 4e15 d5bb c0dc 13bc 9af8 ebbb ee82 81bb
00000140: 6d5d 15bc ec38 41bc 781d 52bc 97e5 40bc
00000150: b2c8 18bc 52ba 3ebc 0c64 5ebc d21b 70bc
00000160: 80c0 54bc 309c 2abc d6c6 3bbc b6e9 63bc
00000170: 130a 77bc ccbf 56bc 393f 1cbc 05a1 1abc
00000180: 8be1 4fbc 4497 5cbc 9be7 45bc 833a eabb
00000190: d8b4 dcba 8c90 8bbb e20f bebb 3bbd c2bb
000001a0: 0401 c8ba 4625 13bc da89 39bc a8db 34bc
000001b0: ba2e 20bc 216c ebbb 6ac9 38bc 9b6e 59bc
000001c0: 34f7 5abc 3ed6 3cbc bd74 0cbc 5f4e 2dbc
000001d0: 11dc 55bc b2ca 5dbc fb39 3dbc 03ef 02bc
000001e0: e56d e4bb f564 2fbc 1db5 31bc d78c 1abc
000001f0: 2746 8abb e1e3 aeba 1729 92bb e466 8fbb
00000200: 103b 12bb bf51 9d3a 9a25 c9ba d050 9dbb
00000210: 6800 cfbb ca90 aabb 1432 00bb 8fc1 a2b9
00000220: 3c27 73bb 85e6 c1bb 5270 bfbb 4c5d 3bbb
00000230: be20 023b 3426 f1b9 6a98 2bbb 3a1a 3cbb
00000240: 0409 72b9 f448 ab3b c991 643b 22e1 053b
00000250: 603f 053b 73a2 9a3b 4f0f 223a dc25 58bb
00000260: 2727 94bb 73c4 51bb ac7e 48ba fbd5 b3b9
00000270: 5122 91bb bb4a dfbb 081b cdbb caed 60bb
00000280: 6b8d e339 7a79 83bb 0eba e4bb beba e9bb
00000290: 1d53 92bb b898 173b 448b d5ba 5232 94bb
000002a0: e7a2 a0bb 6ed3 05bb a950 9e3b b772 8e3a
000002b0: 0124 99ba 4f72 2eba e69f 2b3b 5730 9939
000002c0: c959 6dbb a5da 85bb c4bc 3cbb 6df4 aeb9
000002d0: 2375 67ba b55a a5bb 3f3e d4bb 9629 c3bb
000002e0: 5b2b 47bb 90ff 93b9 7f2e 9dbb 1676 e5bb
000002f0: f509 e5bb 7d4e 74bb 4512 443a c46d 61bb
00000300: 6bc0 b1bb 6c8b a4bb 5b46 95ba 96fe 4b3b
00000310: 2dfa 5eba 42d3 43bb a224 99ba 256c 613b
00000320: 6a1c 9d3a 2f76 5bbb ee83 8dbb 4469 11bb
00000330: 10c6 953a 8533 d7b9 7c76 babb ea9f 06bc
00000340: 7320 d1bb 0930 1abb 0ee0 9fba 5b24 d6bb
00000350: b111 19bc 1f9e febb 9974 56bb c6c7 fcb9
00000360: 5495 b0bb a438 fabb 680b c0bb 3f50 9fba
00000370: c5cb d83a 6651 1dbb ea67 9bbb 9320 2bbb
00000380: 7053 193b 3bdc 043b 0bdd 16bb b416 51bb
00000390: a37c 84ba 6643 5c3b 6d40 99b9 317e aebb
000003a0: b405 ecbb 3e8e b0bb 5357 25ba 423d f7ba
000003b0: 2123 ddbb b3f2 0cbc 48b1 e6bb c658 07bb
000003c0: 840c cbba a153 aebb 0114 d1bb 97b6 acbb
000003d0: 9203 27ba f04d d33a 4543 a0ba 0e5a 39bb
000003e0: 52da edba 35d9 2a3b c9b0 b8bb 78f3 a9bb
000003f0: c800 afba d2db 9eba f6f8 a83b 8029 abbb

345 f4 [7]
0.08276689 0.021378001 0.06868799 0.13337284 0.19139083 0.033095695 -0.16841735
00000000: b081 a93d eb20 af3c 4aac 8c3d e492 083e
00000010: f5fb 433e 5a8f 073d 9975 2cbe

347 f4 [7, 7, 3, 3, 3]
0.0025386554 -0.0013075585 0.0005473179 0.0019206069 -0.0019505193 8.4212865e-05 0.00268945 -0.0010891255
0.0010236205 0.004511077 0.0009457256 0.0028527547 0.004100137 0.0004603469 0.0024919407 0.004895388
0.0012431963 0.003245584 0.0067651253 0.0033985774 0.0053773047 0.0063629313 0.0029636663 0.00508149
0.0071335323 0.0037382594 0.0057644327 0.0019026893 -0.0010995757 -0.00024321314 0.001570345 -0.0012811403
-0.00043801524 0.0019575972 -0.0008546354 8.689117e-05 0.0028589517 3.667479e-05 0.00092773756 0.0025651166
-0.00011665852 0.0007584715 0.0030405177 0.00023608241 0.0012136413 0.003906913 0.0011909098 0.0021558644
0.003390363 0.0009175857 0.00198209 0.004056905 0.0014482861 0.0026135163 0.00097330037 -0.0023653086
-0.0026547986 0.00064211816 -0.002594957 -0.0029196746 0.00046454096 -0.002679307 -0.0030075982 0.0013589415
-0.0021097797 -0.002434498 0.0011363227 -0.0023335598 -0.002714572 0.0011922637 -0.0021766857 -0.0026032664
0.0020250205 -0.0014125528 -0.0017150827 0.0018033589 -0.0017015544 -0.002079535 0.0020003028 -0.0014521044
-0.0019352912 0.004637146 0.0023834452 0.004179332 0.003415796 0.0012146163 0.0031488878 0.004775539
0.0026166071 0.0046254015 0.0078080464 0.0056723896 0.0072632898 0.00672436 0.004637481 0.006357954
0.008024863 0.0059626573 0.007738772 0.009132304 0.0072353473 0.008771395 0.008153972 0.0063245
0.007948992 0.009403207 0.007565634 0.009232402 0.0010867399 -0.0020320027 0.00032587146 0.00011452533
-0.003073789 -0.0006267964 0.0010612285 -0.0021371155 0.0003604951 0.0033198395 0.00043661604 0.0028544
0.002320636 -0.00065461354 0.0018417909 0.0031697594 0.00016923888 0.002685321 0.005404682 0.0028643564
0.005392637 0.0044971 0.0018887657 0.004465906 0.005295809 0.00265419 0.005212761 -0.0005486152
-0.0014492669 0.00021453555 -0.00071684853 -0.0016967639 6.7738315e-06 -0.00032675682 -0.0013435431 0.00038707827
-0.00022631255 -0.001066101 0.00064959243 -0.0003039627 -0.0012678645 0.00045331076 0.00013676652 -0.0008870359
0.00080104294 0.0013649382 0.0006142774 0.002351284 0.0012872678 0.00043341747 0.0021777 0.001687408
0.0007837726 0.0024823004 -0.027127812 -0.026561 -0.0258459 -0.02725917 -0.026860865 -0.026381806
-0.026667215 -0.026373852 -0.025931126 -0.027342265 -0.02672311 -0.026253426 -0.027331067 -0.026893482
-0.026654042 -0.02676391 -0.026467936 -0.026276957 -0.02783281 -0.027173905 -0.026819926 -0.027810184
-0.02731245 -0.027165491 -0.027303655 -0.026946781 -0.026826005 -0.023351545 -0.018328043 -0.011414337
-0.025669629 -0.019595342 -0.012339615 -0.021317145 -0.015257888 -0.008658082 -0.014403623 -0.00946709
-0.0030842694 -0.015993569 -0.01035671 -0.0038862138 -0.011647073 -0.006485104 -0.0008743218 -0.0099705905
-0.005002287 0.001053002 -0.011054738 -0.005615589 0.00028729576 -0.006850248 -0.0023070155 0.0025744669
-0.023639781 -0.019357996 -0.014998363 -0.023392271 -0.019383553 -0.015149542 -0.02185052 -0.017499961
-0.012792674 -0.014737261 -0.010648517 -0.006237626 -0.015176227 -0.011031726 -0.006459324 -0.0128531605
-0.008522382 -0.003933981 -0.0111897895 -0.007069268 -0.0027051351 -0.011667611 -0.007360455 -0.0028406037
-0.0088064885 -0.0047335215 -0.00053636136 -0.009962757 -0.0029252402 0.0013730838 -0.010105386 -0.0029526816
0.0015006094 -0.009316825 -0.0019268455 0.0026560146 -0.0073308097 -0.0009539945 0.0031330874 -0.0074846684
00000000: 925f 263b 6262 abba e279 0f3a e0bc fb3a
00000010: 91a8 ffba 709b b038 7c41 303b fdc0 8eba
00000020: 012b 863a a8d1 933b 92ea 773a 48f5 3a3b
00000030: 715a 863b b75a f139 d44f 233b 7e69 a03b
00000040: bff2 a23a ddb3 543b fcad dd3b abba 5e3b
00000050: 1a34 b03b 2380 d03b 123a 423b a182 a63b
00000060: 68c0 e93b 96fd 743b 91e3 bc3b a963 f93a
00000070: a31f 90ba 0807 7fb9 09d4 cd3a efeb a7ba
00000080: 69a5 e5b9 084b 003b 9c09 60ba 5739 b638
00000090: 405d 3b3b 42d3 1938 6a33 733a 841b 283b
000000a0: 91a6 f4b8 29d4 463a 6c43 473b e48c 7739
000000b0: 0b13 9f3a 9005 803b 4d18 9c3a 6749 0d3b
000000c0: da30 5e3b 228a 703a f4e5 013b c9ef 843b
000000d0: 6bd4 bd3a 8747 2b3b 1525 7f3a 4b03 1bbb
000000e0: 21fc 2dbb d253 283a 2710 2abb 0358 3fbb
000000f0: a28d f339 5097 2fbb 201b 45bb 831e b23a
00000100: 3b44 0abb 198c 1fbb aaf0 943a a3ee 18bb
00000110: f6e6 31bb bb45 9c3a baa6 0ebb 909b 2abb
00000120: 35b6 043b 6825 b9ba a0cc e0ba af5e ec3a
00000130: b106 dfba cf48 08bb 8317 033b 8a54 beba
00000140: 99a9 fdba 33f3 973b 9333 1c3b c7f2 883b
00000150: 8cdb 5f3b c333 9f3a 925d 4e3b 207c 9c3b
00000160: 627b 2b3b ae90 973b a4da ff3b 74df b93b
00000170: e400 ee3b 0558 dc3b 03f6 973b 6256 d03b
00000180: b77a 033c 6562 c33b 8695 fd3b a99f 153c
00000190: 7e16 ed3b e6b5 0f3c 3d98 053c c03d cf3b
000001a0: 7d3c 023c e90f 1a3c 23e9 f73b 8043 173c
000001b0: f170 8e3a 592b 05bb bad9 aa39 522d f038
000001c0: 9f71 49bb 984f 24ba eb18 8b3a d90e 0cbb
000001d0: d500 bd39 aa91 593b 9de9 e439 e310 3b3b
000001e0: d015 183b 5f9a 2bba 3f68 f13a bdbb 4f3b
000001f0: b775 3139 36fc 2f3b c219 b13b edb7 3b3b
00000200: b8b4 b03b 695c 933b 7690 f73a bc56 923b
00000210: 7788 ad3b ebf1 2d3b cfcf aa3b f1d0 0fba
00000220: 54f5 bdba f3f4 6039 e4ea 3bba f365 deba
00000230: c54a e336 8f50 abb9 d319 b0ba c4f0 ca39
00000240: 504e 6db9 6abc 8bba 6949 2a3a 2f5d 9fb9
00000250: 792e a6ba 57aa ed39 fc68 0f39 f987 68ba
00000260: 15fd 513a bae7 b23a 7507 213a 0018 1a3b
00000270: 8ab9 a83a 4f3c e339 beb7 0e3b 042c dd3a
00000280: 1776 4d3a 17ae 223b 253b debc 7496 d9bc
00000290: c8ba d3bc 9f4e dfbc 510b dcbc a81e d8bc
000002a0: 3475 dabc fa0d d8bc 836d d4bc e3fc dfbc
000002b0: 6cea dabc 6d11 d7bc 67e5 dfbc b84f dcbc
000002c0: 9459 dabc fd3f dbbc 49d3 d8bc c642 d7bc
000002d0: a201 e4bc cf9b debc 76b5 dbbc 2fd2 e3bc
000002e0: 5cbe dfbc 2a8a debc eaab dfbc 7fbf dcbc
000002f0: 36c2 dbbc bd4b bfbc b124 96bc 3303 3bbc
00000300: 1d49 d2bc 6986 a0bc 192c 4abc 4ba1 aebc
00000310: 38fc 79bc a1da 0dbc 2cfd 6bbc da1b 1bbc
00000320: 7421 4abb f204 83bc 31af 29bc d9af 7ebb
00000330: 5dd3 3ebc ff80 d4bb be32 65ba b05b 23bc
00000340: 3aea a3bb e204 8a3a ef1e 35bc fa02 b8bb
00000350: 2fa0 9639 0c78 e0bb 4c31 17bb 63b8 283b
00000360: 37a8 c1bc a994 9ebc b2bb 75bc 26a1 bfbc
00000370: 42ca 9ebc c935 78bc ddff b2bc 145c 8fbc
00000380: 5d98 51bc 8e74 71bc 1e77 2ebc 0065 ccbb
00000390: b6a5 78bc 6abe 34bc bda8 d3bb 1096 52bc
000003a0: 76a1 0bbc a0e8 80bb 6155 37bc 51a5 e7bb
000003b0: a348 31bb 8229 3fbc f92f f1bb 6c29 3abb
000003c0: 1749 10bc a81b 9bbb 9a9a 0cba d53a 23bc
000003d0: 63b5 3fbb 0cf9 b33a 1091 25bc c781 41bb
000003e0: 19b0 c43a 99a5 18bc 358e fcba 8810 2e3b
000003f0: 4a37 f0bb 7d15 7aba 7c54 4d3b f341 f5bb

348 f4 [7]
0.06671616 0.21710041 0.116104946 0.12928763 0.055875275 0.053297974 -0.26373783
00000000: 7ba2 883d 924f 5e3e 6ec8 ed3d fa63 043e
00000010: 79dd 643d fa4e 5a3d a508 87be
