Assets/AutoRigLight/Editor/Resources/AutoRigBoneModel.onnx (onnx, 829278 bytes, 74 tensors)

hourglass.0.lower_in_bottle_neck.residual_connection.weight f4 [14, 7, 1, 1, 1]
0	0xba088142	-0.0005207249
1	0xbb3861f6	-0.002813456
2	0xbaea4710	-0.0017873961
3	0xbb13e889	-0.0022569022
4	0xbb102f98	-0.0022001024
5	0xb9a65068	-0.00031721895
6	0xb9d77ebc	-0.0004110242
7	0xb8d04268	-9.930582e-05
8	0x3879ec37	5.958622e-05
9	0xb962b76b	-0.00021621368
10	0x3910fe0c	0.0001382755
11	0x39fab164	0.00047815882
12	0xb9c06a4b	-0.00036700288
13	0xb9126f49	-0.00013965102
14	0x39b4abb5	0.00034460207
15	0xb79071cd	-1.721913e-05
16	0xb6944010	-4.4182016e-06
17	0xb824fadc	-3.9334278e-05
18	0xb9138f2c	-0.00014072348
19	0x39c9d643	0.00038497345
20	0x384a89b6	4.8288806e-05
21	0x38ab1724	8.158226e-05
22	0xb89cb432	-7.472224e-05
23	0x38c97a75	9.607236e-05
24	0x39095c96	0.00013099829
25	0x37d1eee7	2.5025989e-05
26	0x3927d9f9	0.00016007562
27	0xb9448e4d	-0.00018745028
28	0x3895eb50	7.148704e-05
29	0x3964b8e6	0.00021812654
30	0x395d29a1	0.0002109171
31	0x3a218993	0.0006162163
32	0x3a6ac683	0.0008955972
33	0x38368b2a	4.3521788e-05
34	0xb8cc0d61	-9.72997e-05
35	0xb9cbecc5	-0.00038895584
36	0xbae9631c	-0.0017806026
37	0xba8531bb	-0.0010161916
38	0xba95cb1f	-0.0011428333
39	0xba965463	-0.0011469241
40	0xb9870552	-0.0002575317
41	0xb9cf95a4	-0.00039593608
42	0xb944a9d5	-0.00018755284
43	0xbaa3d6d2	-0.0012499935
44	0xba1178c7	-0.0005549308
45	0xba90bc47	-0.0011042439
46	0xbac992e0	-0.0015378855
47	0xb7927be1	-1.7462242e-05
48	0xba2d1994	-0.00066032377
49	0x3a7f1941	0.0009731241
50	0x3a80060f	0.0009767431
51	0x39323533	0.00016995221
52	0x3a483598	0.00076373806
53	0x39c7957a	0.00038067607
54	0x3b17fd2f	0.002319168
55	0x3945486c	0.00018814363
56	0x39477e29	0.00019025117
57	0xba10af01	-0.00055192417
58	0xbadd99d7	-0.001690681
59	0xba957256	-0.0011401873
60	0xbaa9ba0a	-0.0012949121
61	0x3a68253b	0.00088556454
62	0x3a34745f	0.0006883796
63	0xb937e264	-0.00017536577
64	0xba70ab2d	-0.00091807806
65	0xbae80341	-0.0017701165
66	0xbad428b8	-0.0016186452
67	0xbb01155f	-0.0019696576
68	0x3a324f68	0.00068019936
69	0x3a138161	0.0005626884
70	0x39ee9011	0.00045502235
71	0x38afe51e	8.387327e-05
72	0xb8b90c3a	-8.823765e-05
73	0x37fe7640	3.0334224e-05
74	0x3a04419e	0.0005045178
75	0x396feebc	0.00022881752
76	0xb9873159	-0.00025785973
77	0x3982aed5	0.00024925792
78	0xba1bfaf9	-0.00059501786
79	0xb96aaaf1	-0.0002237966
80	0xb9f0007e	-0.00045776734
81	0xb901930b	-0.00012357176
82	0x3995f836	0.00028604426
83	0x38e62f86	0.000109761066
84	0xb89bbd8f	-7.426284e-05
85	0xb9cbc4e7	-0.0003886588
86	0xb9770f28	-0.00023561402
87	0xb7b4a7cd	-2.153581e-05
88	0x39a3a8b6	0.00031215482
89	0xb96ee81b	-0.00022783915
90	0x3944c3cd	0.00018764958
91	0xb946b914	-0.00018951698
92	0xbb001357	-0.0019542777
93	0xbab90c1b	-0.0014117988
94	0xbaec0f37	-0.0018009905
95	0xbac816e9	-0.0015265617
96	0xba11e9c4	-0.0005566145
97	0xba3493fa	-0.00068885053

hourglass.0.lower_in_bottle_neck.residual_connection.bias f4 [14]
0	0xba43450a	-0.0007448947
1	0x39fab018	0.00047814916
2	0x38ebd615	0.00011245549
3	0xba6ab5c9	-0.00089534797
4	0x3a08c3a8	0.00052171433
5	0xb9a23647	-0.00030939488
6	0xba663978	-0.0008782367
7	0x3a49334e	0.00076751865
8	0xbb2d7676	-0.0026468313
9	0xba36eef4	-0.0006978356
10	0x3978bebc	0.00023722177
11	0x3a3001bb	0.0006714125
12	0x3a58017c	0.0008239967
13	0xba8f763c	-0.0010945271

hourglass.0.lower_inner_module.lower_in_bottle_neck.residual_connection.weight f4 [21, 14, 1, 1, 1]
0	0xb8c943a0	-9.597023e-05
1	0x392c4317	0.00016428191
2	0xb979f535	-0.00023837837
3	0xb7024eda	-7.766963e-06
4	0xb8a1a46f	-7.7077064e-05
5	0xb8c35f0c	-9.3160284e-05
6	0x3878c444	5.9310594e-05
7	0x38993f6d	7.3074225e-05
8	0x395a8d26	0.00020842682
9	0xb9bebc96	-0.00036380131
10	0x3938d077	0.00017625267
11	0xb9750d0a	-0.00023369878
12	0xb907b98e	-0.00012943728
13	0xb7386fa8	-1.0993252e-05
14	0x3a0370a7	0.000501404
15	0xb90a9b2e	-0.00013218515
16	0xb9e7ce3a	-0.00044213404
17	0xb5a43912	-1.2235562e-06
18	0xb824b0d6	-3.926534e-05
19	0x38ca60b8	9.650126e-05
20	0x39a14ad5	0.00030764067
21	0x38a3b41e	7.805995e-05
22	0x38a637fb	7.925924e-05
23	0xb8aabd80	-8.141529e-05
24	0xb83f08f0	-4.5546272e-05
25	0x39e1b87f	0.00043052805
26	0xb97dfdc1	-0.00024222491
27	0xb944a0d9	-0.00018751937
28	0x39ec5dd0	0.00045083323
29	0xb9852007	-0.000253916
30	0x39308d41	0.00016837289
31	0xb992dbe9	-0.00028011136
32	0xb9ad397f	-0.0003303997
33	0xb944eee9	-0.00018781018
34	0xb8a76223	-7.98146e-05
35	0xb9b1cb8c	-0.00033911725
36	0xb90fba48	-0.00013706938
37	0xb94dcb81	-0.00019626135
38	0xb90b9b52	-0.00013313934
39	0xb95b779b	-0.00020930024
40	0xba5e21dc	-0.00084736734
41	0xba233645	-0.00062260433
42	0xb9f2a04f	-0.00046277276
43	0x387cfc0d	6.0316223e-05
44	0xb9cb432b	-0.0003876922
45	0xb94e162e	-0.00019653953
46	0xb81d0642	-3.7437545e-05
47	0x3868a61f	5.5467823e-05
48	0xb9078258	-0.0001292316
49	0xb9895516	-0.0002619407
50	0xb8753f85	-5.847171e-05
51	0xb965a496	-0.00021900455
52	0x39269c23	0.00015889159
53	0xb981b27a	-0.00024737773
54	0xb90cd65d	-0.00013431297
55	0xb99afa5c	-0.000295597
56	0x3a7bae36	0.00096008496
57	0xb53864e3	-6.869215e-07
58	0xb9a2f61a	-0.00031082408
59	0xb97755fc	-0.00023587787
60	0x39f4db39	0.0004670264
61	0x38a287be	7.750046e-05
62	0x38cc9099	9.7544114e-05
63	0x3a0717cf	0.0005153389
64	0xb847df3e	-4.7653208e-05
65	0x399f53c8	0.00030389265
66	0x38330e84	4.2690444e-05
67	0x3a0315c0	0.00050004944
68	0xb963db72	-0.00021730157
69	0x38a29d71	7.754088e-05
70	0xb8a32357	-7.779028e-05
71	0xb92e9b4c	-0.00016651786
72	0xb93ce032	-0.00018012596
73	0x3a19de93	0.0005869653
74	0x3880df6d	6.145132e-05
75	0x377b4b12	1.49782445e-05
76	0xb92f5936	-0.00016722534
77	0x38f241fe	0.00011551751
78	0x393c28ea	0.00017944319
79	0x38e7e342	0.000110572684
80	0xb9157f8b	-0.00014257261
81	0x35d04818	1.551819e-06
82	0xb9369f55	-0.00017416228
83	0xb8ece3f6	-0.00011295818
84	0xb8b457b6	-8.599406e-05
85	0xb8dd701b	-0.000105589825
86	0x39cd7cb9	0.00039193573
87	0x38a5ae0a	7.9002304e-05
88	0x38cb3673	9.689936e-05
89	0xb7f6ff09	-2.9444245e-05
90	0xb97d8da1	-0.00024180721
91	0x379611bd	1.7889653e-05
92	0x373a8092	1.1116399e-05
93	0x3807efcc	3.2409836e-05
94	0xb7b06aab	-2.1030506e-05
95	0x39647b95	0.00021789812
96	0xb9d246f2	-0.0004010718
97	0xb975d7bf	-0.00023445392
98	0x3a901ed3	0.0010995514
99	0xb925bcd0	-0.00015805964
100	0xb890a054	-6.8963185e-05
101	0x3a040f15	0.0005037648
102	0x3a11be56	0.00055596733
103	0x3a0c0d5c	0.0005342567
104	0xb8fa70c6	-0.00011941935
105	0xb9b20af6	-0.00033958972
106	0x3985b493	0.00025502275
107	0x39a3f3d1	0.0003127144
108	0xb92962a8	-0.00016153848
109	0x3a8d69ca	0.0010788974
110	0x3915b9ba	0.00014278936
111	0xb9d38154	-0.00040341413
112	0xb9b187e3	-0.00033861314
113	0xb8472218	-4.747705e-05
114	0xb90150a4	-0.0001233244
115	0xb997c23b	-0.00028945677
116	0xb816ac72	-3.592339e-05
117	0xb8fff6ac	-0.00012205294
118	0xb90db69a	-0.00013514832
119	0x38a357c8	7.788796e-05
120	0x38f77acf	0.00011800753
121	0xba00c7a9	-0.0004912564
122	0xb944bf04	-0.00018763175
123	0x382071a9	3.8252827e-05
124	0xb9797151	-0.00023788704
125	0xb9d83793	-0.00041240136
126	0xb9171926	-0.0001440985
127	0x396e572d	0.00022729924
128	0x39461a88	0.00018892635
129	0xb7e4dbed	-2.7282129e-05
130	0x38ee6cd1	0.00011368993
131	0x397617dd	0.00023469278
132	0x394856ce	0.00019105824
133	0x39953fc2	0.00028466998
134	0xb88ea5eb	-6.801992e-05
135	0xb8b164e9	-8.458814e-05
136	0x39807636	0.00024502137
137	0xb9daae3c	-0.00041710015
138	0x398a0ea8	0.0002633233
139	0x39fc81f2	0.00048162002
140	0x38fdb031	0.00012096798
141	0xb76d0d9b	-1.4129469e-05
142	0x3919a4e0	0.00014652638
143	0x38f544f8	0.00011695357
144	0xb9316107	-0.00016916181
145	0xb889e315	-6.5749664e-05
146	0xb8328d2f	-4.2569995e-05
147	0xb965a522	-0.00021900659
148	0x392d7d8c	0.00016545336
149	0x372616f1	9.8997125e-06
150	0x3918f78f	0.00014588072
151	0xb9dbfc22	-0.0004195879
152	0xb9ac4183	-0.00032855207
153	0xb9a1b673	-0.00030844248
154	0x39ee83d1	0.00045493108
155	0x393f8223	0.00018263659
156	0x3a031e95	0.00050018105
157	0xba0e61bc	-0.00054314337
158	0x39713fc2	0.00023007303
159	0x39acdac6	0.00032969395
160	0x39d13216	0.00039900903
161	0x3a8bd19d	0.0010667328
162	0xb87d1c53	-6.034628e-05
163	0xb9125802	-0.0001395643
164	0x39dbf4ce	0.0004195333
165	0xb9769989	-0.00023517584
166	0x37ec63a1	2.8179786e-05
167	0xb9aa0d49	-0.00032434825
168	0x39a6798c	0.00031752547
169	0x38306c6f	4.2062657e-05
170	0xba0785b3	-0.0005169764
171	0x39d58fcc	0.00040733663
172	0xb931cf42	-0.00016957245
173	0xb91d859c	-0.0001502246
174	0x399cdab9	0.000299176
175	0x3a521be2	0.0008015019
176	0x38f3f537	0.00011632818
177	0x39fc948c	0.00048175862
178	0x391c86a1	0.00014927473
179	0x39a467df	0.00031357908
180	0xb926b5b3	-0.00015898682
181	0x37836752	1.566453e-05
182	0xb974035a	-0.00023270902
183	0xb7ba8ce3	-2.2238533e-05
184	0xb8b47eaa	-8.606662e-05
185	0xb90bd72c	-0.00013336231
186	0x39a4a8e8	0.00031406363
187	0x3983ee5a	0.00025163853
188	0xb95b6ffb	-0.00020927184
189	0xb9060596	-0.00012781317
190	0xb9892410	-0.00026157545
191	0xba3448ab	-0.00068772834
192	0xb8878419	-6.461907e-05
193	0xb9f8f99d	-0.00047488222
194	0xb90ed55f	-0.00013621662
195	0xb8708f8b	-5.7354144e-05
196	0xb928eb73	-0.0001610944
197	0xb8998b09	-7.321506e-05
198	0xb9def5fd	-0.00042526415
199	0xb9918add	-0.00027760016
200	0xba002575	-0.0004888394
201	0xb9810467	-0.00024608077
202	0xb913fdc5	-0.00014113549
203	0xb9276571	-0.00015964151
204	0x3825d6dd	3.9539173e-05
205	0xb9b3e50f	-0.00034312202
206	0xb94521bc	-0.00018799951
207	0xba53ba1b	-0.0008076743
208	0xb9e615fa	-0.00043885392
209	0xb97e774e	-0.00024267772
210	0xb8c58960	-9.41928e-05
211	0xb93ae804	-0.00017824775
212	0xb93d70d3	-0.00018066475
213	0xb9bc5252	-0.00035919488
214	0x38a53a81	7.87871e-05
215	0x37e499f1	2.7251403e-05
216	0x38fcbcb9	0.00012051449
217	0xb84f50d0	-4.942791e-05
218	0xb9ae1f00	-0.00033210963
219	0xb9dbfd74	-0.00041959772
220	0x38944a9f	7.071089e-05
221	0xba096b9f	-0.0005242172
222	0x3990e4ef	0.0002763639
223	0xb78ba8b6	-1.6648653e-05
224	0xb8aed840	-8.337246e-05
225	0x36f4f8a8	7.300714e-06
226	0xb950ad49	-0.0001990098
227	0xb98ed88d	-0.00027245693
228	0x38a8d4a6	8.050473e-05
229	0xb8fe45e2	-0.000121246805
230	0xb98e1d40	-0.00027106144
231	0x39faf04d	0.00047862754
232	0xb8e59082	-0.000109464876
233	0xba37b151	-0.0007007318
234	0x399ef0c3	0.0003031549
235	0xba88a96d	-0.0010426469
236	0xb89ff213	-7.626801e-05
237	0xb93bf379	-0.0001792441
238	0xb9ead2d1	-0.00044789028
239	0x37ab8161	2.0445035e-05
240	0xb9b6e18c	-0.0003488179
241	0xba3b28db	-0.0007139572
242	0xb9d980b2	-0.0004148535
243	0xb9b60ccb	-0.00034723277
244	0xb9b8a061	-0.00035214706
245	0xb99bc939	-0.00029713826
246	0x38359385	4.329115e-05
247	0xba168043	-0.00057411584
248	0x38c24761	9.263936e-05
249	0xb97ee85c	-0.00024309888
250	0xba36183f	-0.0006946362
251	0xb9df57a2	-0.00042599166
252	0x37424c88	1.158112e-05
253	0xb7ce8a41	-2.4621493e-05
254	0x3a09db9d	0.000525886
255	0x3932e44f	0.00017060454

hourglass.0.lower_inner_module.lower_in_bottle_neck.residual_connection.bias f4 [21]
0	0x3a86d0ec	0.0010285652
1	0x3999e2ed	0.00029351507
2	0xb999927f	-0.00029291582
3	0x39011599	0.00012310444
4	0x38e3f390	0.000108695705
5	0x39459cfe	0.00018845868
6	0xb8f81bf0	-0.00011830765
7	0x391c8813	0.00014928011
8	0xb9c510bf	-0.00037587245
9	0x3a28f3db	0.00064450287
10	0x39e91f89	0.0004446472
11	0x392d134e	0.00016505757
12	0x390caf76	0.00013416805
13	0xb8b22c59	-8.495962e-05
14	0xba071e54	-0.00051543606
15	0xb98c1bb9	-0.00026723536
16	0xba4a9823	-0.00077283586
17	0xb872834e	-5.7819583e-05
18	0xb6b11818	-5.277816e-06
19	0xb99d420e	-0.00029994588
20	0xb98a7d92	-0.00026414968

hourglass.0.lower_inner_module.lower_inner_module.lower_in_bottle_neck.residual_connection.weight f4 [28, 21, 1, 1, 1]
0	0x3745803f	1.1771975e-05
1	0xb91b3e7e	-0.00014805232
2	0xb915a1f9	-0.00014270087
3	0x38c1c704	9.240027e-05
4	0x3884f3fd	6.339697e-05
5	0x3835dc62	4.335901e-05
6	0x391385e9	0.00014068898
7	0xb9390ad1	-0.00017647004
8	0xb8f1bfa2	-0.0001152747
9	0xb9012d2e	-0.0001231923
10	0xb90154de	-0.00012334014
11	0x360199b4	1.9311965e-06
12	0xb88cc6f1	-6.712776e-05
13	0x391afd8f	0.00014781042
14	0xb86b151a	-5.604802e-05
15	0x392d1829	0.00016507566
16	0xb69b8557	-4.6348828e-06
17	0x383c7a2b	4.493647e-05
18	0x376f393d	1.4258837e-05
19	0x37aa4eb3	2.0302226e-05
20	0xb8abb9e5	-8.188541e-05
21	0xb90b9fce	-0.00013315605
22	0xb8a044f3	-7.642237e-05
23	0xb93f6d93	-0.00018255999
24	0xb98c2f59	-0.00026738158
25	0x382de01a	4.1455125e-05
26	0xb90bd9f8	-0.00013337273
27	0xb89c6914	-7.458232e-05
28	0xb9206e73	-0.00015299935
29	0xb8ca09ef	-9.633961e-05
30	0xb8e169a8	-0.00010748516
31	0xb8f65e7a	-0.00011747792
32	0xb876b834	-5.8822523e-05
33	0x379254c6	1.7444032e-05
34	0xb94168f6	-0.00018445015
35	0xb91602dd	-0.00014306181
36	0xb950f1d5	-0.00019926515
37	0xb7cf8f59	-2.4743074e-05
38	0xb9de5f73	-0.00042414255
39	0xb7da9abc	-2.6059679e-05
40	0xb8894e2d	-6.5472304e-05
41	0xb912a4c2	-0.00013985022
42	0xb921c5eb	-0.00015427887
43	0xb85f5366	-5.3245014e-05
44	0xb91211e5	-0.00013930311
45	0xb9044cec	-0.00012617157
46	0xb8ee488b	-0.000113622365
47	0xb96ab167	-0.00022382067
48	0xb91d19c3	-0.00014982284
49	0xb886547a	-6.405353e-05
50	0xb84bf56c	-4.862754e-05
51	0xb8adcb86	-8.287192e-05
52	0xb92943c5	-0.00016142342
53	0xb930e5c7	-0.00016870267
54	0xb9091a12	-0.0001307505
55	0xb70aa058	-8.262774e-06
56	0xb790b8f6	-1.7252267e-05
57	0xb8ade583	-8.292033e-05
58	0xb8823479	-6.208657e-05
59	0xb91a49cd	-0.00014714077
60	0xb7f8055f	-2.9566405e-05
61	0xb8aa5e5a	-8.123806e-05
62	0xb879fde4	-5.960268e-05
63	0x38b85620	8.789846e-05
64	0xb6a9f41e	-5.0650115e-06
65	0xb8258df6	-3.9471277e-05
66	0xb84250d2	-4.6328474e-05
67	0xb91c39e9	-0.00014898893
68	0xb712d6e8	-8.752315e-06
69	0xb8c7e7ae	-9.532213e-05
70	0xb9a7dd97	-0.0003201782
71	0xb8fdfd48	-0.000121111574
72	0xb8e59b2f	-0.00010948476
73	0xb895f7bd	-7.1510185e-05
74	0xb80b37db	-3.3192202e-05
75	0xb8491afc	-4.7947266e-05
76	0x3899ff62	7.343177e-05
77	0xb83b6e3b	-4.4686934e-05
78	0xb98e57db	-0.00027149808
79	0x38903579	6.876415e-05
80	0xb8d34a96	-0.00010075157
81	0x38469fab	4.735558e-05
82	0xb95a639e	-0.0002082721
83	0xb83bcb75	-4.477376e-05
84	0xb9002c7b	-0.00012223602
85	0x38b7f70c	8.772136e-05
86	0x37585dd6	1.2896451e-05
87	0x38d0855e	9.9430545e-05
88	0xb8e65982	-0.00010983927
89	0xb8a3a291	-7.802726e-05
90	0x3889b5af	6.56651e-05
91	0x38d3fa11	0.000101078425
92	0xb57eba24	-9.4893244e-07
93	0x3677106e	3.6815431e-06
94	0xb78448c2	-1.5769507e-05
95	0x372bb180	1.0233722e-05
96	0x365d1258	3.2942244e-06
97	0xb8fa8d71	-0.000119472745
98	0xb8d79547	-0.00010279804
99	0xb82f7e3d	-4.184082e-05
100	0x3609e1d9	2.0546051e-06
101	0xb97214c1	-0.0002308665
102	0xb964ad16	-0.00021808254
103	0xb807b6b0	-3.235665e-05
104	0xb92be78d	-0.0001639409
105	0x3924a012	0.0001569989
106	0xb94014fd	-0.00018318366
107	0xb8502431	-4.962477e-05
108	0xb98a9530	-0.00026432564
109	0xb78c5fb3	-1.6733864e-05
110	0x378169f1	1.5427331e-05
111	0x39311ae0	0.00016890047
112	0xb73b88dd	-1.11779345e-05
113	0xb921eed5	-0.00015443128
114	0xb7314084	-1.0565043e-05
115	0xb7b51c38	-2.1590022e-05
116	0xb909e697	-0.0001315124
117	0xb8bc08f2	-8.966205e-05
118	0x3850c6a9	4.977608e-05
119	0x38893dde	6.544193e-05
120	0x392aaa73	0.0001627596
121	0xb87f4edc	-6.087018e-05
122	0x398fb4c9	0.0002740978
123	0xb84ab9c9	-4.833358e-05
124	0xb93789cf	-0.00017503578
125	0x38338be7	4.280722e-05
126	0xb8fd729c	-0.00012085328
127	0xb903f0f4	-0.00012582896
128	0xb9687141	-0.00022167435
129	0xb7b7f0df	-2.1927464e-05
130	0xb896b3e2	-7.186063e-05
131	0xb8f8f6d3	-0.00011871536
132	0xb9122b3f	-0.00013939755
133	0xb92e5af8	-0.00016627822
134	0xb88193d2	-6.178733e-05
135	0xb90c85ee	-0.00013401333
136	0xb97e0133	-0.00024223774
137	0xb8c3e12b	-9.3402654e-05
138	0xb97c69a5	-0.00024071948
139	0xb91c414e	-0.00014901647
140	0xb8770e78	-5.8902864e-05
141	0xb97c51b8	-0.00024063035
142	0xb8ed56a9	-0.00011317182
143	0xb9b6b62e	-0.0003484948
144	0xb93524cb	-0.00017275212
145	0xb883bb93	-6.281505e-05
146	0xb8b8ebb7	-8.817709e-05
147	0xb89cc98e	-7.476202e-05
148	0xb8cb27b6	-9.687191e-05
149	0x379efef9	1.8953799e-05
150	0xb95d532f	-0.0002110719
151	0xb86868c7	-5.5410692e-05
152	0xb819ca24	-3.66663e-05
153	0xb984a874	-0.0002530251
154	0x3827fc66	4.0050967e-05
155	0xb86f8f3a	-5.711543e-05
156	0xb8559f3b	-5.0931452e-05
157	0xb8da24b6	-0.00010401888
158	0xb94b5d9b	-0.0001939446
159	0xb8c850f6	-9.551823e-05
160	0xb8ba46c9	-8.882356e-05
161	0x38214151	3.8446222e-05
162	0xb9135ec3	-0.00014054314
163	0xb8858e65	-6.368457e-05
164	0xb8c6b8b5	-9.47578e-05
165	0xb8833d34	-6.257967e-05
166	0x35e63f0e	1.7154687e-06
167	0x3808ef81	3.2647982e-05
168	0x39184aff	0.00014523788
169	0xb8db3fd5	-0.000104546234
170	0xb6e430de	-6.8006184e-06
171	0xb9563d5d	-0.0002043149
172	0x3822a4e2	3.877737e-05
173	0xb893fc2a	-7.0564754e-05
174	0xb914c419	-0.00014187432
175	0xb90b6d55	-0.00013296802
176	0xb85b10b8	-5.222924e-05
177	0xb81f4064	-3.7968523e-05
178	0xb90fdb2a	-0.00013719188
179	0xb604bd8a	-1.977986e-06
180	0xb90f9b0f	-0.00013695307
181	0xb8bd5166	-9.027384e-05
182	0x38a2026b	7.725212e-05
183	0x37aec86a	2.0835741e-05
184	0xb849796b	-4.8035214e-05
185	0x38d64bc9	0.00010218431
186	0xb6f81e57	-7.394508e-06
187	0xb918ccd4	-0.00014572154
188	0x38e8a5f0	0.0001109353
189	0x3814f6bb	3.5515735e-05
190	0xb72fa615	-1.0469482e-05
191	0xb7ccdaf2	-2.442065e-05
192	0x387504f7	5.8417176e-05
193	0xb840efb0	-4.5999594e-05
194	0xb7e7c13e	-2.7627331e-05
195	0x374d145a	1.2223691e-05
196	0xb845e8db	-4.7185324e-05
197	0xb66913b9	-3.4731186e-06
198	0x373638a8	1.0861237e-05
199	0xb79b07ab	-1.848101e-05
200	0x38720028	5.769744e-05
201	0xb5c992a3	-1.5018344e-06
202	0x390fa1af	0.00013697775
203	0x38549521	5.0683626e-05
204	0x3934ae8d	0.00017231163
205	0x37b3703c	2.1390726e-05
206	0x38ada6f5	8.280381e-05
207	0x38575477	5.133866e-05
208	0x38bb000b	8.916863e-05
209	0x3890e241	6.908598e-05
210	0xb899fba0	-7.342477e-05
211	0xb8557208	-5.0889357e-05
212	0x36f7c7f9	7.3844535e-06
213	0xb94a5f96	-0.0001929983
214	0xb96155e7	-0.00021489673
215	0xb9670c12	-0.00022034373
216	0xb9189bb1	-0.00014553849
217	0xb8bb064d	-8.9180285e-05
218	0xb8a7cdf2	-8.001541e-05
219	0x36d864ce	6.449037e-06
220	0x3967e6d4	0.00022115867
221	0xb761c441	-1.3456739e-05
222	0xb8fc8efa	-0.00012042928
223	0xb8ed738a	-0.000113225615
224	0x38170511	3.6005924e-05
225	0xb9300c62	-0.00016789281
226	0x3917b14f	0.00014466535
227	0xb82de7e4	-4.146238e-05
228	0x35f09b84	1.7926654e-06
229	0xb96ee99c	-0.00022784475
230	0x37e05352	2.674168e-05
231	0xb71beeee	-9.29435e-06
232	0xb895fd1a	-7.1520175e-05
233	0x38f48fe0	0.000116616255
234	0xb9152552	-0.0001422365
235	0xb8ef4802	-0.000114098206
236	0xb8d22778	-0.00010020932
237	0x371a27a6	9.188347e-06
238	0xb78d948e	-1.6877686e-05
239	0xb8876d7f	-6.457697e-05
240	0x391ceb18	0.00014964899
241	0x3782f88b	1.5612944e-05
242	0xb7baf34c	-2.2286222e-05
243	0xb8bc93df	-8.992082e-05
244	0x381f6ca4	3.8009734e-05
245	0x38d3f1f3	0.000101063306
246	0x368d887a	4.2180154e-06
247	0xb7468f1b	-1.1835039e-05
248	0x3889fb95	6.57953e-05
249	0xb8bbf102	-8.961746e-05
250	0xb90602a1	-0.00012780215
251	0x38fedfdd	0.000121533616
252	0x38621d85	5.391009e-05
253	0xb908f4f2	-0.0001306122
254	0x37d6e3c0	2.5616842e-05
255	0xb8b2079a	-8.489117e-05

hourglass.0.lower_inner_module.lower_inner_module.lower_in_bottle_neck.residual_connection.bias f4 [28]
0	0xb97b1eeb	-0.00023948743
1	0xb9963e51	-0.0002865666
2	0xb9861701	-0.0002557561
3	0xb8d20735	-0.00010014923
4	0xb8034df4	-3.1305433e-05
5	0xb9a9a2d6	-0.00032355514
6	0xb9855dde	-0.00025437673
7	0x38ed351b	0.00011310932
8	0xb88c8828	-6.701081e-05
9	0xb8bf6113	-9.125671e-05
10	0x38d02059	9.924238e-05
11	0xb8f88649	-0.00011850574
12	0xb915aa3e	-0.00014273167
13	0x387b2611	5.9878515e-05
14	0xb671ef84	-3.6051215e-06
15	0x37699f46	1.3924966e-05
16	0x37691dfc	1.38948635e-05
17	0xb9723fb5	-0.00023102651
18	0xb9b057da	-0.0003363479
19	0xb9dc196d	-0.00041980614
20	0xb9220813	-0.00015452532
21	0x397602aa	0.0002346138
22	0xb9846f09	-0.0002525973
23	0xb7e3b893	-2.7146458e-05
24	0xb7c4990b	-2.3436287e-05
25	0x38864a5b	6.403468e-05
26	0x390d6bc2	0.00013486951
27	0xb78e4bfe	-1.6963106e-05

hourglass.0.lower_inner_module.lower_inner_module.lower_out_bottle_neck.residual_connection.weight f4 [21, 29, 1, 1, 1]
0	0x38c98003	9.608271e-05
1	0xb9adc854	-0.00033146387
2	0x3939b961	0.00017712034
3	0xb90af26d	-0.00013251016
4	0x38edcd6e	0.00011339305
5	0x391ce802	0.00014963749
6	0x392137f7	0.00015375005
7	0x381613b3	3.5781133e-05
8	0x391819c6	0.00014505451
9	0xb817a10e	-3.61512e-05
10	0x39445f38	0.00018727488
11	0xb8733e8a	-5.799396e-05
12	0xb90cea0e	-0.00013438633
13	0xb8901b6f	-6.871565e-05
14	0xb5a4b1b8	-1.2270675e-06
15	0xb9326e6b	-0.00017016537
16	0x373fa506	1.142291e-05
17	0xb986e8cd	-0.00025731922
18	0xb77b6d78	-1.49862535e-05
19	0xb93d22f7	-0.0001803747
20	0xb994b626	-0.0002836447
21	0x37b2bb5f	2.1306505e-05
22	0xb9158c55	-0.00014262025
23	0x395a3bfd	0.00020812447
24	0x383018e4	4.198485e-05
25	0x38a30f9e	7.7753546e-05
26	0xb8a6322c	-7.924842e-05
27	0x38ad04a7	8.2501494e-05
28	0x3856527d	5.10984e-05
29	0xb9dd42fd	-0.00042202315
30	0xb9a7c034	-0.00031995925
31	0xb90e2ac7	-0.00013558111
32	0xb91c1f90	-0.00014889077
33	0xb93357e0	-0.00017103506
34	0xb7266ac4	-9.919229e-06
35	0xb8e36370	-0.00010842725
36	0xb694c492	-4.4336275e-06
37	0xb90393b2	-0.00012548154
38	0xb95f8bb1	-0.00021318976
39	0xb762b1a6	-1.3512012e-05
40	0xb8ffcd45	-0.00012197582
41	0xb8bf43f6	-9.1202484e-05
42	0xba0986d3	-0.00052462256
43	0xb8c63ff5	-9.453289e-05
44	0xb906d5fd	-0.00012858953
45	0xb88c86a4	-6.700799e-05
46	0xb99a0e0c	-0.00029383635
47	0x393924f9	0.00017656748
48	0x394100ca	0.00018406208
49	0xb9f4467a	-0.00046591816
50	0xb9b19824	-0.00033873424
51	0xb8762159	-5.8682028e-05
52	0xb9f3d2d6	-0.00046505657
53	0xb8b47254	-8.604364e-05
54	0xb9b87b9c	-0.0003518731
55	0xb8f57832	-0.000117048985
56	0xb9483d12	-0.00019096237
57	0xb986d2bd	-0.00025715484
58	0x3915f08e	0.00014299361
59	0x39989e11	0.00029109468
60	0x37d6ced2	2.5607096e-05
61	0x39993ab6	0.00029226177
62	0xb9802d2d	-0.0002444772
63	0x398cb77e	0.00026839593
64	0xb85766f2	-5.135587e-05
65	0x3926f1c0	0.00015921053
66	0x384a0a0e	4.8169917e-05
67	0x39782b7a	0.0002366732
68	0xb8d31491	-0.00010065095
69	0xb8ed47f2	-0.000113144415
70	0x3850625f	4.968268e-05
71	0x390ecd86	0.00013618739
72	0xb9099031	-0.00013119054
73	0x38595455	5.1815372e-05
74	0xb91ac54c	-0.00014760083
75	0xb915442e	-0.00014235146
76	0xb8c05604	-9.171295e-05
77	0x365a8ece	3.2567655e-06
78	0xb88f07ec	-6.820247e-05
79	0xb99d9046	-0.00030052866
80	0xb87b48a2	-5.9910708e-05
81	0x38b1a558	8.4708154e-05
82	0xb8bbbd6c	-8.9521374e-05
83	0x39a5e7d1	0.0003164397
84	0xb6b0af1a	-5.2655932e-06
85	0x38c2f7dc	9.296808e-05
86	0xb805d8fd	-3.1911757e-05
87	0x39158b6d	0.00014261687
88	0xb93eabb8	-0.00018183782
89	0xb79dd3e4	-1.8814528e-05
90	0xb8baa77d	-8.900368e-05
91	0x386aec9d	5.601031e-05
92	0x396ac4d9	0.0002238931
93	0x388288fb	6.224398e-05
94	0x386a3d7a	5.5847202e-05
95	0x35652208	8.535867e-07
96	0x363b144c	2.7876986e-06
97	0xb65aa1d0	-3.2578719e-06
98	0xb7838518	-1.5678394e-05
99	0x39075da2	0.00012909484
100	0x38be68b6	9.07941e-05
101	0xb886a00d	-6.41943e-05
102	0x39894d63	0.00026188334
103	0xb917d1fd	-0.00014478709
104	0xb8dd2987	-0.00010545836
105	0xb8bd4d06	-9.026569e-05
106	0xb9449832	-0.00018748714
107	0xb99885da	-0.00029091426
108	0x363b75ac	2.7933665e-06
109	0xb8867bee	-6.4127016e-05
110	0x389d06ac	7.487586e-05
111	0xb89f5755	-7.597978e-05
112	0xb95e8f00	-0.00021224841
113	0x3804b44a	3.163916e-05
114	0xb7dcf89e	-2.6341815e-05
115	0x392e60c2	0.00016629978
116	0x39128824	0.00013974361
117	0x378b4cf5	1.6605927e-05
118	0x381dffcc	3.7669946e-05
119	0x39646b01	0.00021783636
120	0x380a2640	3.2937387e-05
121	0x37f96c39	2.9733508e-05
122	0x3989670e	0.00026207458
123	0xb90b99a8	-0.00013313314
124	0x38851d3f	6.347382e-05
125	0x388a217b	6.586589e-05
126	0xb90be003	-0.00013339524
127	0xb7977a6b	-1.8057608e-05
128	0xb863b9d0	-5.429407e-05
129	0x38c063c9	9.17386e-05
130	0xb856903f	-5.1155916e-05
131	0x39661fb9	0.00021946327
132	0xb92a32cb	-0.00016231385
133	0x399e6353	0.0003021011
134	0x39de9180	0.00042451546
135	0x39c1f9de	0.00036997994
136	0x39051563	0.00012691836
137	0x398bc6fd	0.00026660404
138	0x3825c4ec	3.9522463e-05
139	0xb836df73	-4.3600285e-05
140	0x39d14719	0.00039916558
141	0x38470eeb	4.745919e-05
142	0x39a7dedc	0.00032018765
143	0x3936f6a2	0.0001744875
144	0x3913d953	0.00014099972
145	0xb90b471e	-0.00013282566
146	0xb8ee1fe3	-0.00011354664
147	0x37945c08	1.768583e-05
148	0xb9187038	-0.00014537654
149	0xb996282e	-0.00028640166
150	0x383b99de	4.4727574e-05
151	0xb9916c19	-0.00027737094
152	0x3889b5b4	6.566514e-05
153	0x39035a39	0.00012526744
154	0xb7ac4e37	-2.054042e-05
155	0xb8ebd576	-0.000112454334
156	0xb8783a48	-5.9182086e-05
157	0x38154bd8	3.5595003e-05
158	0xb81b0ac9	-3.6964924e-05
159	0xb81aeb07	-3.6935347e-05
160	0xb966c611	-0.00022008295
161	0x38bdc912	9.0496746e-05
162	0xb9a71140	-0.00031865574
163	0xb98c7711	-0.00026791592
164	0xb9910ee5	-0.00027667652
165	0x395bc602	0.00020959231
166	0xb93118b2	-0.00016889235
167	0xb8f52f67	-0.0001169134
168	0xb88056f1	-6.11971e-05
169	0xb9ac48cf	-0.00032860643
170	0xb7945156	-1.768085e-05
171	0xb8fa16a1	-0.00011925144
172	0x383645b9	4.3457116e-05
173	0xb96eff68	-0.00022792595
174	0xb9d5256d	-0.0004065441
175	0xba7895a2	-0.0009482746
176	0xb9d11501	-0.00039879236
177	0xb9beedcf	-0.00036416805
178	0x38d57e2a	0.00010180131
179	0xb84386bd	-4.6617108e-05
180	0xb9cf71ec	-0.00039566995
181	0xb9f1d47d	-0.00046125418
182	0x37f1b16d	2.881206e-05
183	0xb890ff7c	-6.914043e-05
184	0xb8d44fcc	-0.00010123811
185	0x38e566ab	0.00010938694
186	0xba038a69	-0.0005017878
187	0xb983ad8f	-0.00025115578
188	0xb8ff71b7	-0.000121805286
189	0xba18f08f	-0.0005834186
190	0xb908a848	-0.0001303266
191	0xb9f9ce12	-0.00047646515
192	0xb9a88a52	-0.00032146514
193	0xb93e8a8f	-0.00018171429
194	0xb8a6994b	-7.94405e-05
195	0xb9e0cfb3	-0.00042879357
196	0xb9565144	-0.00020438904
197	0xb5f24c17	-1.805255e-06
198	0xb9f35054	-0.0004640842
199	0xb98ca3cc	-0.0002682492
200	0xb86b8464	-5.6151664e-05
201	0xb8d2819b	-0.00010037721
202	0xba3d20cf	-0.00072146667
203	0xb91af39c	-0.00014777336
204	0xb917279c	-0.00014415238
205	0x385a184b	5.1997875e-05
206	0x391624b2	0.00014318785
207	0x39806cd5	0.0002449515
208	0x39c51381	0.000375893
209	0x392eaaab	0.00016657512
210	0x391aa7c3	0.0001474908
211	0x38f22d49	0.00011547894
212	0x39020cc1	0.00012402517
213	0x39443369	0.00018711168
214	0xb754409f	-1.26512305e-05
215	0x39868cbd	0.0002566333
216	0xb9a39dd2	-0.00031207368
217	0x3911b1ce	0.00013894515
218	0x38894241	6.54501e-05
219	0x38ce85b0	9.847747e-05
220	0xb8f598b8	-0.000117109565
221	0x39511e6a	0.00019943123
222	0x394eee69	0.00019734506
223	0x37ea1551	2.79049e-05
224	0x3882827a	6.223186e-05
225	0x39017ecb	0.00012349633
226	0x389bfe5a	7.4383526e-05
227	0x398ff178	0.00027454994
228	0xb82357e0	-3.894407e-05
229	0x38e10d72	0.000107313404
230	0x388c36ae	6.685905e-05
231	0x394a9e49	0.00019323187
232	0xba1362d5	-0.0005622332
233	0xb8db465b	-0.000104558385
234	0xb95a908c	-0.00020843948
235	0xb7a79631	-1.997789e-05
236	0x39891ceb	0.00026152222
237	0xb9a194ac	-0.00030819082
238	0xb9a3e235	-0.0003125832
239	0xb9348e67	-0.00017219187
240	0xb9b636ad	-0.00034754482
241	0xb9bfb26d	-0.00036563296
242	0xb972ef65	-0.000231681
243	0xb942c635	-0.0001857512
244	0x39a763dd	0.00031927126
245	0x3a14fb46	0.00056831946
246	0xb92df886	-0.00016591148
247	0xb7db3369	-2.6130774e-05
248	0xb943e31c	-0.00018681254
249	0xb7102aaa	-8.593002e-06
250	0xb9df8a86	-0.00042637083
251	0xb9c5f326	-0.00037755928
252	0x39a9c5ae	0.00032381475
253	0xb7024653	-7.764977e-06
254	0xb98dc627	-0.0002704125
255	0x3968459c	0.00022151176

hourglass.0.lower_inner_module.lower_inner_module.lower_out_bottle_neck.residual_connection.bias f4 [21]
0	0x38565219	5.1098035e-05
1	0xb986d2b4	-0.00025715458
2	0xb805d8f4	-3.1911724e-05
3	0x392e60b6	0.00016629961
4	0x3913d95c	0.00014099985
5	0xb96eff59	-0.00022792573
6	0xba3d20cf	-0.00072146667
7	0x394a9e3b	0.00019323167
8	0xb8b992fe	-8.848867e-05
9	0xb96b3c45	-0.00022433799
10	0x390f6420	0.00013674842
11	0xb9e1a84c	-0.00043040735
12	0xb8b0c86b	-8.429665e-05
13	0xb90a0478	-0.0001316237
14	0x39028799	0.0001244828
15	0x38056748	3.180586e-05
16	0x398fe5c7	0.00027446283
17	0xb90358a6	-0.00012526158
18	0xb82c515b	-4.1083764e-05
19	0xb99f0720	-0.00030332152
20	0xb9525fda	-0.00020062868

hourglass.0.lower_inner_module.lower_out_bottle_neck.residual_connection.weight f4 [14, 21, 1, 1, 1]
0	0x3985d47f	0.0002552606
1	0x3985dab7	0.00025530692
2	0x39a9d405	0.0003239216
3	0x389761f0	7.2184834e-05
4	0xb70a3f10	-8.240124e-06
5	0x384c05be	4.8642738e-05
6	0x393f83f8	0.00018264342
7	0xb958a4b6	-0.00020660725
8	0xb98ce191	-0.0002687094
9	0x382a027f	4.0533483e-05
10	0x38d6df85	0.00010245949
11	0x3960ccc7	0.0002143859
12	0xb93f492a	-0.00018242435
13	0xb91ecaa1	-0.0001514354
14	0x39dfe458	0.00042704004
15	0xb81013bb	-3.435065e-05
16	0xb92fa59d	-0.00016750996
17	0xb80bc313	-3.332186e-05
18	0x39bd306e	0.00036084972
19	0x36ce65cc	6.151129e-06
20	0x38b9e2b3	8.8637134e-05
21	0xb93a47d1	-0.00017765096
22	0xba0706a1	-0.0005150829
23	0xbaa99566	-0.0012938201
24	0xb8bfa7e1	-9.1388596e-05
25	0x38c03456	9.165022e-05
26	0x39d68685	0.00040917486
27	0x3978fa9a	0.0002374448
28	0xb9245f71	-0.00015675813
29	0xb9028b8b	-0.0001244975
30	0xba833222	-0.0010009448
31	0xba8df9ab	-0.0010831853
32	0x3a3068d4	0.0006729488
33	0xba327dae	-0.0006808889
34	0xb9f77152	-0.0004719594
35	0xba563b24	-0.0008172265
36	0xbb08ee16	-0.0020893863
37	0xb8ef25c2	-0.00011403441
38	0xb8914765	-6.927437e-05
39	0xba80c4ed	-0.0009824313
40	0xb97eb738	-0.00024291582
41	0xb8d925ad	-0.00010354384
42	0x38ab3c86	8.165189e-05
43	0xb8086ac2	-3.2524353e-05
44	0x39aae9ba	0.00032599067
45	0xb99df4a3	-0.00030127642
46	0xba115a42	-0.00055447605
47	0x39b0566f	0.00033633734
48	0x3894a3a6	7.087672e-05
49	0xb9bf982f	-0.00036543744
50	0xba760a21	-0.00093856646
51	0x3a0e9d6a	0.00054403266
52	0xb69fea6d	-4.76586e-06
53	0xb9dd37cf	-0.00042193985
54	0xb9941138	-0.0002824159
55	0x391186a7	0.0001387844
56	0x39744fa5	0.00023299323
57	0x38cc832a	9.751909e-05
58	0xb8b2659e	-8.506629e-05
59	0xba18981e	-0.0005821007
60	0x389a9889	7.371704e-05
61	0xb925c1a6	-0.00015807766
62	0x39fa249d	0.00047710995
63	0xb9a66607	-0.00031738004
64	0xb9d44645	-0.00040488146
65	0xba09efd2	-0.0005261871
66	0xb9e6ea80	-0.00044043735
67	0xb9b0060c	-0.0003357384
68	0xb8f8545e	-0.00011841276
69	0xba19d4f5	-0.000586822
70	0xb9be481f	-0.00036293358
71	0xba14b15f	-0.00056721823
72	0xb9db2e43	-0.00041805403
73	0xb9fd87f6	-0.0004835722
74	0xba2b9e67	-0.0006546736
75	0xba115b51	-0.0005544918
76	0xb97c6b76	-0.00024072625
77	0xb99f14c4	-0.00030342315
78	0xba0d1116	-0.0005381269
79	0xba2437d1	-0.0006264421
80	0xb97a5f9a	-0.00023877472
81	0x37592a88	1.29441105e-05
82	0x3811ad41	3.473205e-05
83	0xb9aa6e9e	-0.00032507343
84	0xb9527166	-0.00020069405
85	0xb9980791	-0.00028997337
86	0xb73b2152	-1.1153827e-05
87	0xb9f4cd92	-0.00046692468
88	0x396f9ae6	0.0002285052
89	0x38aa5194	8.121427e-05
90	0x3a234466	0.00062281487
91	0x39ff687c	0.00048715237
92	0xba1b8221	-0.00059321715
93	0x397bf2c4	0.00024027663
94	0x392c3ea0	0.00016426528
95	0x397441ca	0.00023294162
96	0x373b2390	1.1154349e-05
97	0xb8a09d98	-7.658749e-05
98	0x380551c4	3.178582e-05
99	0x3978f4b2	0.00023742279
100	0xb96e6be6	-0.00022737644
101	0xb8c75751	-9.5053234e-05
102	0xb93dc8e0	-0.00018099276
103	0x39d7b00c	0.0004113916
104	0xba6a90f9	-0.0008947994
105	0xba8da99c	-0.0010807994
106	0xba4caf59	-0.0007808111
107	0xba4aa84f	-0.00077307684
108	0xba06f142	-0.00051476446
109	0xba22149d	-0.0006182881
110	0xb9520e8a	-0.00020032577
111	0xb9c21ff7	-0.0003702638
112	0xb9df46fb	-0.0004258676
113	0xba3c8695	-0.0007191685
114	0xba3ea8f2	-0.00072730996
115	0xb9d7aac9	-0.0004113524
116	0xba3555b2	-0.00069173716
117	0xb9efb153	-0.0004571775
118	0xba36404e	-0.0006952331
119	0xba43e598	-0.0007472872
120	0xba786968	-0.0009476156
121	0xb9ce6d7b	-0.0003937295
122	0xba2181a2	-0.00061609794
123	0xba4a0bc5	-0.0007707442
124	0xb98aad7d	-0.0002645067
125	0xba2a4f3e	-0.00064967934
126	0xba3f5c98	-0.00072998693
127	0x3856c8ab	5.1208463e-05
128	0xb8b1bce4	-8.475201e-05
129	0x381cd111	3.7388007e-05
130	0xb9d1bd38	-0.00040004565
131	0xb9fc3195	-0.00048102127
132	0xba37f270	-0.0007017022
133	0xb9d5c002	-0.00040769583
134	0xb98cc5d6	-0.0002685028
135	0xb99af71f	-0.00029557289
136	0xba26298c	-0.00063385884
137	0xb91358fe	-0.00014052165
138	0x390e42ff	0.00013567133
139	0xba14edd6	-0.0005681192
140	0xb7f7a059	-2.9519362e-05
141	0xba01549a	-0.0004933566
142	0xb8e3c548	-0.0001086095
143	0xba44f264	-0.00075129257
144	0xb9dae7ac	-0.0004175281
145	0xba1ce28c	-0.0005984686
146	0xba124770	-0.0005580103
147	0x39125c2a	0.00013957979
148	0x38008e85	3.065031e-05
149	0x388cda4d	6.716382e-05
150	0x3927725d	0.00015968965
151	0x398f5a61	0.00027342423
152	0xb8c7a39a	-9.5195326e-05
153	0xb8986a00	-7.267669e-05
154	0x395d97f2	0.00021132806
155	0x3a029b32	0.00049822323
156	0xb951a067	-0.00019991548
157	0x39fcb845	0.00048202477
158	0x39c33f81	0.00037240612
159	0xb91f7f26	-0.00015210788
160	0x34ca22e0	3.7650807e-07
161	0x3a42a636	0.000742528
162	0x39fd2a2f	0.0004828735
163	0x38e36cbb	0.00010844456
164	0x3a57cd0e	0.00082321547
165	0x39e48223	0.00043584508
166	0xb88ab893	-6.6147324e-05
167	0x3a33e0b8	0.0006861794
168	0xb9f2a94a	-0.00046283967
169	0x37965e92	1.7925431e-05
170	0xb9fb430a	-0.000479244
171	0xb807e8f9	-3.240348e-05
172	0xb95af314	-0.00020880654
173	0xb8a93e91	-8.070202e-05
174	0xb9ca93ea	-0.00038638647
175	0xb9b1bc5f	-0.00033900418
176	0xba0ac525	-0.0005293659
177	0xb9e48a24	-0.00043590472
178	0xb999918c	-0.00029290875
179	0xba0068e9	-0.00048984453
180	0x382e6829	4.158184e-05
181	0xb8b71001	-8.729101e-05
182	0xba5426f9	-0.00080929656
183	0xb9cfddc3	-0.00039647342
184	0xba1f74ed	-0.0006082792
185	0xba1f2439	-0.0006070766
186	0xba273d9f	-0.00063797267
187	0x39450d8e	0.00018792434
188	0xb92b6633	-0.00016345903
189	0xba9c408f	-0.0011921095
190	0xba021dff	-0.0004963576
191	0xba19ea9a	-0.0005871445
192	0xba874d42	-0.0010322707
193	0xba2142e8	-0.00061516324
194	0xba2b56cb	-0.00065360655
195	0xbaac575b	-0.0013148593
196	0xbad21a94	-0.0016029649
197	0xba212f2e	-0.0006148693
198	0xba93a296	-0.0011263664
199	0xba39fed0	-0.000709516
200	0xbab4534a	-0.0013757732
201	0xba996dc6	-0.0011705689
202	0xb9e494db	-0.00043598455
203	0xba00cd11	-0.000491337
204	0xba564ee7	-0.00081752095
205	0xba3d9fb6	-0.00072335766
206	0xba80e458	-0.0009833677
207	0xb9f21b8e	-0.00046178367
208	0xba21b470	-0.000616855
209	0xba56b2c8	-0.00081900926
210	0xba02ec30	-0.0004994301
211	0xb99be67a	-0.00029735622
212	0xb9c9da74	-0.00038500468
213	0xb9fc9d0d	-0.00048182197
214	0x394bbf5a	0.00019430873
215	0xb9c5bc0d	-0.00037714877
216	0xb9c787be	-0.00038057374
217	0xb87764ad	-5.898315e-05
218	0xb9d39921	-0.00040359146
219	0xb9f3d71b	-0.00046508838
220	0xb9c31b00	-0.00037213415
221	0xba04ae89	-0.0005061408
222	0xb9773906	-0.00023576999
223	0xb9bd02f9	-0.00036051104
224	0x3741f7fe	1.1561437e-05
225	0xba822fd2	-0.0009932464
226	0x390417ff	0.0001259744
227	0xb9d04598	-0.00039724703
228	0xb9fdd7e7	-0.0004841678
229	0xb9dd3117	-0.0004218898
230	0xb9800df4	-0.00024424458
231	0xb920cbeb	-0.00015334754
232	0x385d7f5b	5.2809115e-05
233	0x3974c327	0.00023342353
234	0x399dbf19	0.00030087752
235	0xb9fc0ac5	-0.0004807321
236	0xb957605a	-0.00020539892
237	0xb9da70fc	-0.0004166438
238	0xb9b53af7	-0.00034566942
239	0x37a97a61	2.0203357e-05
240	0x3821f96e	3.861769e-05
241	0xba1a770c	-0.0005892373
242	0xba0d9998	-0.00054016104
243	0x36a4f0f9	4.915634e-06
244	0xb944a8e8	-0.00018754939
245	0xb9c0dede	-0.00036787143
246	0x38c45a5c	9.362839e-05
247	0x37b4c1af	2.1547863e-05
248	0xba05976c	-0.0005096111
249	0xb9581a99	-0.00020609274
250	0xb90f79f3	-0.00013682972
251	0xb8ea114e	-0.00011161213
252	0x36a8263a	5.0112403e-06
253	0x393576d6	0.00017305775
254	0x39197e22	0.00014638205
255	0x391e9af1	0.00015125774

hourglass.0.lower_inner_module.lower_out_bottle_neck.residual_connection.bias f4 [14]
0	0x389c688a	7.4581316e-05
1	0xba13fb36	-0.00056450383
2	0xb904e67c	-0.00012674363
3	0xba28b3a9	-0.0006435463
4	0xb9cf6e9b	-0.00039564524
5	0xba7af294	-0.000957289
6	0xba3061d9	-0.00067284476
7	0x39e5be01	0.00043819848
8	0xba0cf599	-0.0005377173
9	0xba88fc5e	-0.0010451188
10	0xb9eb5a42	-0.0004488994
11	0xb9927da7	-0.00027940908
12	0xb95273b8	-0.00020070269
13	0xb987cfc4	-0.00025904004

hourglass.0.lower_out_bottle_neck.residual_connection.weight f4 [7, 14, 1, 1, 1]
0	0xb8927640	-6.983848e-05
1	0xb9be422a	-0.0003628892
2	0xba8ce62b	-0.0010749748
3	0xba72b7fe	-0.00092589844
4	0xb9c31bf3	-0.00037214122
5	0xb7972498	-1.8017643e-05
6	0xb992f6ff	-0.00028031316
7	0xba2dcc08	-0.00066298293
8	0xba371635	-0.0006984205
9	0xb9a5120a	-0.00031484693
10	0xba18bb83	-0.0005826281
11	0xb93b4b64	-0.00017861795
12	0xb9b281d4	-0.00034047535
13	0xba5f788d	-0.00085247384
14	0x38e1a717	0.00010759959
15	0xba967a54	-0.0011480548
16	0xb8b9974d	-8.8496694e-05
17	0xba403fcb	-0.00073337246
18	0xb895773c	-7.127083e-05
19	0xba9d6954	-0.001200954
20	0xb9f8d9d5	-0.00047464544
21	0xba715eac	-0.00092075276
22	0x39f76ecc	0.0004719406
23	0xba377d09	-0.00069995277
24	0xba7b759d	-0.0009592416
25	0xba07df44	-0.00051831105
26	0xb92ac6f9	-0.00016286586
27	0xba845112	-0.0010094962
28	0xba45cabc	-0.00075451634
29	0x3a284cd1	0.0006420138
30	0xba3ca735	-0.00071965466
31	0x3aa5fa1f	0.0012663043
32	0xb9870341	-0.0002575163
33	0xb7eb69ef	-2.8063512e-05
34	0xb90cd4ff	-0.00013430788
35	0xbab8b93c	-0.001409329
36	0xba41b0fb	-0.0007388738
37	0x3a161a44	0.000572596
38	0x3a284d7d	0.0006420238
39	0xb9d2d0f2	-0.00040209998
40	0xb9b61b08	-0.00034733885
41	0x3a898a6d	0.0010493525
42	0xba4b3e5d	-0.00077531283
43	0x3aa9873d	0.0012933981
44	0xbac7393d	-0.0015199553
45	0x3aba9966	0.001423639
46	0x382c1ec0	4.1036634e-05
47	0x37490045	1.1980596e-05
48	0xbafbe7ed	-0.00192189
49	0x3a89c6a9	0.0010511476
50	0x3a0106e7	0.0004921988
51	0x399342d3	0.00028087813
52	0x3a888dc7	0.001041823
53	0xba72ab0b	-0.0009257055
54	0xba8c3c04	-0.0010699038
55	0x39a7b943	0.00031990753
56	0xb88012f4	-6.107046e-05
57	0x39b35124	0.00034201995
58	0xba6b2ca6	-0.0008971192
59	0x39279891	0.00015983196
60	0xb9139b97	-0.00014076974
61	0x376e90c6	1.4219613e-05
62	0x3a03e0e8	0.0005030767
63	0xbaccdad9	-0.0015629187
64	0xba9fb571	-0.0012184811
65	0x39e9e092	0.0004460854
66	0xb9251d56	-0.00015746555
67	0xba0f9797	-0.0005477606
68	0xb9f5d96b	-0.0004689203
69	0x39b87e17	0.0003518916
70	0xbae3cb9b	-0.0017379405
71	0x3afcd08b	0.0019288225
72	0xbb3b6c2e	-0.0028598416
73	0x3a34ed0d	0.00069017784
74	0xb99c4719	-0.0002980761
75	0x3b09e56d	0.002104129
76	0xba83bb80	-0.0010050386
77	0xbaa3b43a	-0.0012489625
78	0xb8bb36e1	-8.927077e-05
79	0xba5e347b	-0.0008476448
80	0x39647db9	0.0002179061
81	0xbb412e5f	-0.0029477102
82	0xbb085585	-0.0020802927
83	0x38473b3f	4.7500474e-05
84	0x3ac66df0	0.0015138965
85	0xba401f5b	-0.0007328891
86	0x3aa7bb58	0.0012796922
87	0xb8b43655	-8.593189e-05
88	0x39cb33b4	0.000387577
89	0x3a6da68e	0.0009065651
90	0xb972556d	-0.00023110742
91	0x398895a1	0.00026051424
92	0x372ca5f9	1.0290642e-05
93	0x3a19b8b0	0.00058640074
94	0xb9ae77fa	-0.00033277256
95	0xb68d8b26	-4.2183265e-06
96	0xb99030bf	-0.0002750214
97	0xb98c9dc9	-0.0002682044

hourglass.0.lower_out_bottle_neck.residual_connection.bias f4 [7]
0	0xba449de6	-0.00075003353
1	0xba120d87	-0.0005571474
2	0xbabbd5a3	-0.0014330636
3	0x3b1fe429	0.0024397469
4	0xba503381	-0.0007942245
5	0xbb8448e7	-0.004037011
6	0x38161bbb	3.5788613e-05

outputs.0.5.weight f4 [1, 3, 1, 1, 1]
0	0xbafc32a0	-0.0019241162
1	0x3bd2d91a	0.006434572
2	0x3bd4f107	0.0064984593

344 f4 [7, 2, 5, 5, 5]
0	0x3d8df3ff	0.06931304
1	0x3e8cf7ed	0.27532902
2	0xbd491bc7	-0.049098756
3	0xbd7c2d24	-0.061566487
4	0xbd987f7f	-0.07446193
5	0x3c8e5f97	0.017379565
6	0x3e41b9ad	0.18918486
7	0x3ccd8576	0.025088053
8	0xbd0c14cb	-0.034199517
9	0xbdc41014	-0.09573379
10	0x3e2c7ee9	0.16845287
11	0x3ec81d6d	0.3908495
12	0xbe272c5b	-0.16325514
13	0xbe702b84	-0.234541
14	0xbd3e83f2	-0.04651255
15	0x3e8a8789	0.2705653
16	0x3e10fcc5	0.14158924
17	0xbca2d95b	-0.019879034
18	0x3db3c572	0.08777894
19	0xbd8f0632	-0.069836035
20	0x3e106d19	0.14104117
21	0x3e0b2abc	0.1359052
22	0xbe0e2701	-0.13882066
23	0xbdcd2745	-0.10017256
24	0xbcf74b16	-0.030187171
25	0x3dadf9b2	0.08494891
26	0x3e45ea38	0.19327629
27	0xbdbf7c87	-0.093499236
28	0xbd161dc4	-0.03664948
29	0xbdcaecaa	-0.09908421
30	0x3d8becff	0.06832313
31	0x3e2b4e9e	0.16729209
32	0xbdf855b9	-0.12125725
33	0xbc5fba04	-0.013655189
34	0xbe26edfa	-0.16301718
35	0x3e8add80	0.27122116
36	0x3e2a87f4	0.16653425
37	0xbdd7344f	-0.10508024
38	0x3c855db2	0.016280029
39	0xbbc6506d	-0.006052068
40	0x3e8545e9	0.260299
41	0x3ebdc598	0.37064815
42	0xbd4dbe19	-0.05023012
43	0x3defb8da	0.117051795
44	0xbd84fb11	-0.064931996
45	0x3e3e0f06	0.18560418
46	0x3e3ffb44	0.18748194
47	0xbde408a5	-0.11134461
48	0xbcdd3614	-0.027003326
49	0x3d993074	0.07479945
50	0xbdcb914c	-0.099398226
51	0x3e438292	0.19092777
52	0xbd778fa2	-0.060439713
53	0xbc6d7812	-0.014493959
54	0x3d4dadcf	0.050214585
55	0x3a16f02e	0.00057578355
56	0x3db29499	0.08719749
57	0xbd1339e1	-0.03594387
58	0xbce83d4a	-0.028349537
59	0xbe0fbd46	-0.14037046
60	0x3d82c671	0.06385506
61	0x3e29f8c3	0.16598801
62	0xbd10deb3	-0.035368633
63	0x3dfd0d86	0.12356095
64	0x3c97dce7	0.018537952
65	0xbd8b75f2	-0.06809606
66	0x3e1d3c34	0.15354997
67	0xbd8650cb	-0.06558379
68	0xbdb192be	-0.08670567
69	0xbe104d59	-0.14092006
70	0xbb6a696f	-0.003576841
71	0x3e27f5d8	0.16402376
72	0xbd0d0f5f	-0.034438487
73	0xbd32a4aa	-0.043614067
74	0xbde0bb73	-0.10973253
75	0xbd43ccfc	-0.04780291
76	0x3e30c537	0.17262731
77	0x3ca9e27a	0.020737875
78	0xbd3e4531	-0.046452705
79	0x3c851a14	0.016247787
80	0x3e1cc2ef	0.15308736
81	0xbc258c11	-0.010104195
82	0xbdcd9ee5	-0.10040072
83	0x3c0d8181	0.008636833
84	0xbcea9a49	-0.028638022
85	0xbe119ecd	-0.14220734
86	0xbbee8367	-0.007278848
87	0xbd8a70a2	-0.06759764
88	0xbe69242b	-0.22767703
89	0xbdcea747	-0.10090499
90	0xbca4dbf1	-0.020124407
91	0x3dca7686	0.09885888
92	0xbd3cbc52	-0.046078034
93	0xbda546a5	-0.08070115
94	0x3d4c61dd	0.049898017
95	0x3d1836e9	0.03716174
96	0xbd05d021	-0.03266919
97	0xbe15ea3b	-0.14640133
98	0x3e04a66b	0.12954108
99	0xbdee3db7	-0.11632865
100	0x3de3220d	0.11090479
101	0x3db519f8	0.08842844
102	0x3c9ce688	0.019152895
103	0x3e201651	0.15633513
104	0x3e24361a	0.16036263
105	0xbc6cc160	-0.014450401
106	0x3cd85289	0.026406543
107	0xbcad2a80	-0.02113843
108	0xbcee1a3f	-0.02906525
109	0xbe07fdb5	-0.13280375
110	0x3d444b68	0.047923476
111	0x3d7743d8	0.060367435
112	0x3ccff141	0.025383594
113	0xbd148562	-0.036260016
114	0xbdb1542f	-0.08658635
115	0x3e0a20e9	0.13489117
116	0x3de9574e	0.11393605
117	0xbd456f14	-0.048201635
118	0x3cb4ece9	0.022085624
119	0xbc30b33d	-0.010784921
120	0x3e1c8955	0.15286763
121	0x3d87b332	0.06625976
122	0x3d180a5c	0.037119254
123	0x3c791f7c	0.01520526
124	0xbd3afb77	-0.04564997
125	0x3ce88462	0.028383438
126	0x3d89de9c	0.067319125
127	0xbdd644ea	-0.10462363
128	0xbeb10b65	-0.34579006
129	0xbec2690c	-0.3797077
130	0x3dc6439b	0.096808635
131	0x3d27d2f9	0.040972684
132	0xbcf95d28	-0.030439928
133	0xbe22ff5f	-0.15917729
134	0xbe54e112	-0.20788983
135	0x3e23e758	0.1600622
136	0x3e9dbef7	0.30809757
137	0x3691b86a	4.3428054e-06
138	0xbe24cb41	-0.1609316
139	0xbe507012	-0.20355251
140	0x3eb7ba5c	0.35884368
141	0x3eb1096f	0.3457751
142	0x3e30b87b	0.17257874
143	0x3dc83485	0.09775642
144	0x3c17c42a	0.009263078
145	0x3ebbe204	0.36695874
146	0x3eee515f	0.46546456
147	0x3e823713	0.25432643
148	0xbd048281	-0.03235102
149	0x3e1a1032	0.1504524
150	0x3da935f3	0.08262243
151	0x3cf252d0	0.029580504
152	0xbe503399	-0.20332183
153	0xbe0f3628	-0.13985503
154	0xbe90a2c2	-0.28249174
155	0xbcaa47eb	-0.020786246
156	0x3c95fe96	0.018309873
157	0xbd1ac7c2	-0.03778816
158	0xbe2d7802	-0.1694031
159	0xbe9c3ad5	-0.30513635
160	0x3e7ed123	0.24884467
161	0x3e4af52e	0.19820091
162	0x3d4bfacf	0.049799737
163	0xbdf3b0b0	-0.11898935
164	0xbd28ed0c	-0.04124169
165	0x3eefaefb	0.46813187
166	0x3ea21db8	0.316633
167	0x3e1ab16f	0.15106748
168	0x3daabf92	0.083373204
169	0xbc7d7e28	-0.0154719725
170	0x3f0350ea	0.5129534
171	0x3ee6d9e8	0.45088124
172	0x3e297dcc	0.16551894
173	0x3e003f22	0.12524083
174	0x3d954875	0.07289211
175	0xbc8a51f9	-0.01688479
176	0xbdf80b77	-0.12111562
177	0xbe3dc79e	-0.18533179
178	0xbebcad7c	-0.36851108
179	0xbebf0cfc	-0.37314594
180	0xbd011aa9	-0.031519566
181	0xbcfd847c	-0.030946963
182	0xbe4ea2ef	-0.20179342
183	0xbea55e81	-0.32298663
184	0xbeadd249	-0.33949497
185	0x3d60367e	0.054739468
186	0x3bdd0e9b	0.006746126
187	0xbc9d9844	-0.019237645
188	0xbe284d8e	-0.16435835
189	0xbe331af6	-0.17490754
190	0x3e9a65e1	0.30155852
191	0x3e74a79b	0.23892061
192	0x3ac38f0d	0.0014919952
193	0x3a147319	0.0005662903
194	0x3b3cb87a	0.002879648
195	0x3e7e1ed3	0.24816446
196	0x3e9547ee	0.2915644
197	0xbc1af2f8	-0.009457342
198	0x3d599707	0.053122547
199	0xbd7dee2a	-0.06199471
200	0x3d6bf8f3	0.057610463
201	0xbdca2e00	-0.09872055
202	0xbe2a01ac	-0.166022
203	0xbe9dc69f	-0.30815598
204	0xbe553a7b	-0.2082309
205	0xbd0b2fc5	-0.033981103
206	0xbdadc13f	-0.084841244
207	0xbe58eae3	-0.21183352
208	0xbe876c10	-0.26449633
209	0xbe7bf58f	-0.24605392
210	0x3e074033	0.13208084
211	0x3dbddfc0	0.092711926
212	0xbdbe2be2	-0.09285714
213	0xbd866af0	-0.065633655
214	0xbe184649	-0.14870562
215	0x3d92a12e	0.07159649
216	0x3e192c93	0.1495841
217	0xbd5e87a3	-0.054328572
218	0xbd84c619	-0.06483097
219	0x3c12adf5	0.008952607
220	0x3e4f8ca2	0.20268491
221	0x3e3b6ca4	0.18303162
222	0x3d294d19	0.04133329
223	0x3e08672e	0.1332061
224	0x3bb5c8e3	0.005547629
225	0x3dcb9839	0.099411435
226	0x3db6eade	0.08931516
227	0xbe3ba163	-0.18323283
228	0xbe8c290f	-0.27375075
229	0xbe3edb3e	-0.18638322
230	0x3d8f85b2	0.07007922
231	0x3c6a28ce	0.014291955
232	0xbe0d603b	-0.1380624
233	0xbe1cf78d	-0.15328808
234	0xbe1967a1	-0.14980938
235	0x3ded2795	0.11579815
236	0x3d92bceb	0.071649395
237	0xbc67f434	-0.014157344
238	0xbe1521f7	-0.14563738
239	0xbcc13ef5	-0.02358959
240	0x3e11a473	0.14222889
241	0x3ea81a99	0.32832792
242	0x3dbd1631	0.09232748
243	0x3df039ff	0.11729812
244	0xbc49ea1f	-0.012323885
245	0x3e808ba7	0.25106546
246	0x3e899334	0.2687012
247	0xbbbb77a8	-0.0057210512
248	0x3d982e6f	0.074307315
249	0x3e1527dc	0.14565986
250	0xbe3f8113	-0.18701582
251	0xbe456a45	-0.1927882
252	0xbe3a1cea	-0.18175092
253	0xbe93b85f	-0.288516
254	0xbd86371a	-0.065534785
255	0xbe979aab	-0.2961019

345 f4 [7]
0	0xbdeeef99	-0.116667934
1	0x3e1064ff	0.14101027
2	0xbde289a6	-0.110614106
3	0x3d5bfc0e	0.053707175
4	0xbe00e0a9	-0.12585701
5	0xbe15aaf7	-0.14615999
6	0x3e0b499f	0.13602303
